models/value.pth (torch, 647639 bytes, 25 tensors)

a1.weight f4 [16, 5, 3, 3]
00000000: ce08 093e 2e2e 8a3d 8fbc 1d3d c506 a03d
00000010: ebfc 62bc 698b aa3d d2f4 38be 3d30 83bd
00000020: 9e2a 92bd a06a 63bd 92e3 97bd 0b82 e53d
00000030: d277 e6bd f181 eebc e1e1 353d efb9 92bd
00000040: b253 15bd 940e 83be 81d2 0bbe 210d cd3d
00000050: b31c ee3c 186d 273e 4d55 6ebc 8f55 0e3e
00000060: db7c 0fbe fa63 563e a9ef 073d 7dcb 8fbe
00000070: a03a 083d a24e b9bc 34e9 12be c58e d3bc
00000080: 5da4 f33c 1669 4fbe b05a 29be 1c7e 3b3e
00000090: 92b6 013d d82d cdbd 25a5 8ebc 5cad 363d
000000a0: 95cd 283d 9999 da3c de0e 92bc 0011 ba3d
000000b0: a685 bdbd e283 a23d 8236 0a3d 56bf 453e
000000c0: 3ece 26bd 6796 e7bd ecd8 393c 455e 1fbe
000000d0: fca0 743d f07a cf3d 676c 433e 99a7 193e
000000e0: 156b 89bd 99be 1d3d 12ed 6cbd dfdf c3bc
000000f0: ab8a 01be 68cb e43c 3d59 6bbe 3091 2fbe
00000100: d8d8 9cbd d2a2 0ebe 98c8 913d 0613 403c
00000110: f223 7bbd b210 b93c 6fbf 19be 32ba 00be
00000120: 39a6 273d 9990 df3c 35b4 47bd 3860 ec3c
00000130: 803e 333c cc88 93bd ed32 153e 23f8 373e
00000140: 60a6 d9bd 4b10 103d 9e40 613d d20c a33c
00000150: d648 813d 2631 263d 25e9 f1bc b0fd 7dbb
00000160: 5719 c1bd 3ff7 a6bd 5d6a 483d 52e1 3f3e
00000170: 6eb9 08bc b8f5 06be 1726 b53d 3638 d43d
00000180: b61d 2cbe 4e2c 563e 1e83 b63c f6fd 0e3d
00000190: 0072 aa3d 2cc1 ca3d a951 9c3c e5d5 4fbe
000001a0: 325f 75bd 714a 2f3e 6dcf 6f3d 7b81 4d3d
000001b0: 4db9 f63c 788d 31be 073f 4ebe 3cfe 65bd
000001c0: 0200 28be 7b3f a6bc fbfc 1abc f9d3 ad3d
000001d0: c805 e23c 411c 55bd 57b1 d53d 7cc7 113e
000001e0: 4f1b 3d3c 8bfc e9bd 6fc6 b5bd 27b4 b73d
000001f0: 747a e0bd a226 56bd a107 0b3e 6c80 c6bd
00000200: 213d d13d 3055 ee3d 32bb 36bd 9bce 87bd
00000210: 40b4 e8bc 847b a8bd 10ce f6bc d564 843d
00000220: 777f f93c d38c 01bd 33d3 123d 088e 703d
00000230: 3248 37be 310a 2c3e 70df cfbc 727e fbbd
00000240: 639b 263d 3501 e23c 1dcc fcbd a99f 543d
00000250: b0f8 3cbe c06e 793c 0a16 a7bd fa03 d03d
00000260: 3847 ae3c 2ceb 8c3d 3a0f edbd 44aa e5bb
00000270: 2378 7ebe b188 d5bd 3518 9f3d 6e28 3b3e
00000280: 67ce 803d 7bdf c23b 6825 4bbe 0c36 013e
00000290: 1e0f 433e 0431 cbbc f3d9 6b3e a057 20be
000002a0: eedc ff3c 8468 fb3c 03b9 91bc 5e26 bdbd
000002b0: 68ec 68bb b9e9 3b3d 7ea2 173e 052c 06bd
000002c0: 5ec9 4a3d 63f2 46bc e538 bcbd 920d ce3c
000002d0: 9976 a0bc f03f 123e bfb4 4b3d 1621 2fbe
000002e0: 9c21 bd3d 5afa 173d 6727 00be 3d94 2abc
000002f0: 650d 333e 72fe 313e 905e 9ebc 1770 923d
00000300: ffce 4fbd d2da 353b 2b96 7cbc 0fb9 29be
00000310: 5f3c 0abe ef90 133d e878 42bd a832 3fbd
00000320: 031e 6a3d ff32 133e f605 1bbd 3386 a63c
00000330: 4a76 05bd fdba 64be f67d 873d 75e4 85bd
00000340: 7599 0f3e d01b 12be b6ab b43d e678 b23d
00000350: a17e 45bd 58a6 03be 11be e53d e729 753d
00000360: 692b 593d 791e a7bd 35a7 96bc a95d ccbc
00000370: e3e5 423d 5459 1abe ac52 edbc 1197 bf3d
00000380: a9f5 893d 99d2 24bd 951b e8bd c88e 883d
00000390: 4dab 8bbd 2fb8 6c3b 5134 22be fb09 57bd
000003a0: 9aa0 5b3d 181b 153e 19da 32be 7463 ed3b
000003b0: e666 93bd 8826 1f3d 7606 ecbd 3f62 1b3e
000003c0: 7d62 68be 97a2 32be cf46 c33d 0273 d4bd
000003d0: 0f9e 0b3d 1ec1 93bd 9c0a cd3c b006 11be
000003e0: ce49 9e3d 3703 1abe 9d34 30be fdf0 a63c
000003f0: 7136 be3d 3820 2c3e c5c3 7bbd a464 23bb
0.13382265 0.06747089 0.0385099 0.07813791 -0.013854246 0.083273716 -0.18062142 -0.06405685
-0.07137035 -0.055521607 -0.074164525 0.11206444 -0.11253323 -0.029114695 0.044404868 -0.0716437
-0.03645677 -0.2559706 -0.1365452 0.1001227 0.02906642 0.1635021 -0.0145467045 0.13899826
-0.14012472 0.20936576 0.033187542 -0.28084937 0.033259034 -0.022620503 -0.14346772 -0.025824914
0.02974146 -0.20254931 -0.16538501 0.18309826 0.031668253 -0.100185096 -0.017412731 0.044598922
0.041211683 0.02668457 -0.017829355 0.09085274 -0.09254007 0.07935311 0.03374339 0.1931127
-0.04072403 -0.11307984 0.011343222 -0.15563305 0.05972384 0.1013087 0.19084321 0.1500534
-0.067098774 0.038511846 -0.057843275 -0.023910461 -0.12650554 0.027929023 -0.2298326 -0.17145228
-0.07658547 -0.13929299 0.07118338 0.011723286 -0.061313577 0.022590969 -0.15014432 -0.12571028
0.040930007 0.02729063 -0.048755843 0.028854474 0.010940194 -0.07203826 0.14570208 0.1796575
-0.10627437 0.03517179 0.054993264 0.019903574 0.063127205 0.040574215 -0.029530117 -0.0038755946
-0.09428661 -0.08152627 0.04892956 0.18738297 -0.008344991 -0.13179672 0.08845156 0.10362284
-0.16808209 0.20915338 0.022279318 0.034910165 0.08322525 0.09900126 0.019081907 -0.20296438
-0.05990524 0.17118241 0.058547426 0.05017231 0.030117655 -0.17339122 -0.2014123 -0.05615066
-0.16406253 -0.020293942 -0.009459729 0.08487696 0.027590647 -0.0520289 0.104342155 0.14236253
0.011542155 -0.11425122 -0.08875739 0.08969908 -0.10960856 -0.052282937 0.13577129 -0.09692463
0.102167375 0.11637342 -0.044612117 -0.06631204 -0.028406262 -0.08226684 -0.030127555 0.06464545
0.030456288 -0.03162844 0.035845947 0.0587292 -0.17898634 0.16800763 -0.025375098 -0.12279977
0.040675532 0.027588466 -0.12343619 0.051910076 -0.18454242 0.015224159 -0.081585005 0.101570085
0.021274194 0.06880793 -0.1157517 -0.0070088226 -0.24850516 -0.104264624 0.07768289 0.18277141
0.06289368 0.005947051 -0.19838488 0.12618273 0.19048735 -0.024803646 0.2303236 -0.15658426
0.031233277 0.030689485 -0.017788416 -0.092358336 -0.00355413 0.045877192 0.1480808 -0.032756824
0.049508445 -0.01214275 -0.09190539 0.025152955 -0.019587802 0.14282203 0.04973292 -0.17102465
0.09234926 0.03710399 -0.12515031 -0.010411319 0.17485578 0.1738222 -0.0193322 0.07150286
-0.050734516 0.0027748835 -0.015416662 -0.165745 -0.13499592 0.03602689 -0.047478586 -0.04667917
0.057157528 0.14374922 -0.03784748 0.020327663 -0.032583512 -0.22336955 0.06615822 -0.06537715
0.14023383 -0.14268422 0.08821814 0.08714466 -0.048216466 -0.12856424 0.11217893 0.059854414
0.053019915 -0.08160109 -0.018390277 -0.024947004 0.04758252 -0.15073138 -0.028970085 0.093549855
0.06736309 -0.040239904 -0.11333386 0.06667858 -0.068197824 0.0036120524 -0.1584027 -0.052499752
0.05361996 0.14561117 -0.1746601 0.0072445218 -0.07197361 0.038855106 -0.1152467 0.15174197
-0.2269382 -0.17444836 0.0953499 -0.103734985 0.034086283 -0.072145686 0.025029473 -0.14162707
0.07728921 -0.15040289 -0.1720757 0.020378584 0.092877276 0.16809165 -0.061465997 -0.0024931813

a1.bias f4 [16]
00000000: d0cf 103e 2f62 ba3d 60b2 c1bc c32a c5bd
00000010: 85cc 943d c43b e53d 5e52 fb3d f994 183c
00000020: 8126 16be 5575 ed3b 867d b9bc 789e e4ba
00000030: 2cb7 edbd 8628 e9bd e53e f03d e239 2c3d
0.14141774 0.09100758 -0.023644626 -0.09627297 0.072655715 0.1119304 0.1227157 0.009312862
-0.14663126 0.007246653 -0.022642862 -0.0017442247 -0.11607203 -0.11384682 0.11730746 0.04204739

a2.weight f4 [16, 16, 3, 3]
00000000: 2eb8 c0bc 02d8 a13c 6b59 e93b 8158 cebb
00000010: 213b 2bbe 870b 073d 2ba9 c1bc a699 27bd
00000020: 5579 d1bd 9518 323d 34fe 863d c3a8 88bd
00000030: ab5a a1bc ac7d dabc 4065 f1bd dd5e fb3c
00000040: bd48 423d 6f47 9e3c d548 953d 5912 da3d
00000050: 79e9 04bd e6b1 633d 5a45 c73d 3902 ea3d
00000060: 0347 1cbb 459b 8f3c 9b0a fbbc 4ee3 f0bc
00000070: beaa 0cbd f473 403b 76ca fbbd 36fc 2abc
00000080: 349c 3abd b880 883d d0a5 41bc e439 303d
00000090: 75f3 a83d 3e6a c7bd d952 e3bc 72db 623d
000000a0: a884 b9bd 4a8a 01bd 668d 8e3d ee2c bf3d
000000b0: cca7 06bb b8ed 8d3d 27bd 80bc 1e04 b0bd
000000c0: 122a 4c3d 8913 8dbd 8604 75bd 7c44 dabc
000000d0: 34b1 7a3d d00f c23c ae21 15be 0035 723d
000000e0: 5a75 ca3c d671 d03d ba5d 82bb 4aba 36bd
000000f0: 3535 4cbd 0298 b2bd 1279 d1bb 0511 34bc
00000100: 8245 973d ab34 573d bfe8 943d ec0d 8dbc
00000110: f361 7bbd 6761 46be 5d44 95bd 076c 303d
00000120: 08b7 f13a d4db 1a3d 5e11 f4bc 234a 153c
00000130: 804b e4bc e552 dcbb 9763 9abd 73d6 353e
00000140: 6e2e 063e 8fca 9abd 9bbb 8b3b 157b 14bd
00000150: b2a6 53bd 48cb 163d 6fea 953d dbf7 343d
00000160: e79a 9b3d 42b6 ffbc 9dc5 a33d 1b60 433d
00000170: e44c 953c 82d1 8fbd 10d0 7cbd df40 923d
00000180: 09d1 ebbc 04ea d3bc f9c1 d839 9faa 733c
00000190: c74f 413c 9706 a5bc 1938 d4bd 4531 703d
000001a0: 209d 1c3d ed1f 523d 4183 ad3d 34f2 803d
000001b0: 7134 2dbd cba1 2cbe b1e7 3e3c 700d df3d
000001c0: e8d9 dfbd 8703 8dbd f596 9e3d a393 35bc
000001d0: bb2d 14bc 428e 103d 678a b6bc 0381 2f3d
000001e0: f14b 5cbd c86f 77bc 8a63 58bd dc49 ed3d
000001f0: 2ae5 b7bc d5da 5d3d 9c05 ac3c 2e48 85bd
00000200: 6b53 c83d c4b0 833d 0c2c 41bd b51b 60bc
00000210: 25e3 a03d 422d a9bd 679a 7c3d 0685 84bd
00000220: 2089 a43d ed65 47bd 7b9b c8bd 5e50 0f3d
00000230: d423 e53d 932e 36bd 53e9 b2bd 601c a23d
00000240: 54c9 d83d 0d18 8cbd 61cf 853d 6f56 e9bc
00000250: 8366 8c3b 1d77 51bd 3132 e63b 054f b43d
00000260: b190 613c eefc 163d fecb 8dbc 0f0c 093d
00000270: d620 6d3d 5377 8c3d 44b5 52bc 5794 4d3d
00000280: 230d 25bb a018 29bd 0436 2b3d 22e8 973d
00000290: 9bd2 8dbc 9363 d53c 8411 2b3d b9ed b8bc
000002a0: bbc9 ce3d 8477 0a3d dea7 b63d cab5 38bd
000002b0: 3c01 cfbd 6174 933d eb60 12bc b641 bbbd
000002c0: 6e70 c6bb 53ac 043e 6f56 9abc 0c14 8c3d
000002d0: 09e9 6a3d f346 bdbd 6e29 863d 614e 143d
000002e0: 9fd9 143d 83c4 19bd abe7 2cbc 1636 11bd
000002f0: 73e3 2dbd 8cc4 6abd a932 6b3d 2a3d 6dbd
00000300: 3c92 68bd d256 a63d ef98 413d b1cc 843d
00000310: 3a7c f6bc 37fe 7a3d a0ba 81bc 08c8 6fbd
00000320: 0ea5 e13d 286e abbc 4bed ce3d 69b1 96bc
00000330: 2edc 813b 0276 ae3d c043 ab3c ebf6 883d
00000340: 1c61 e43c 94e5 c33c bb24 d4bd deb2 b03d
00000350: 8911 1a3e 0c85 303c dd75 5b3d d613 a23d
00000360: 88f3 68ba 093f f4bb 5cb2 b6bc 56d1 aa3c
00000370: 075a 3cbd 8e0d 24bd 0ed0 05bd cf4b 613c
00000380: cf99 273d b826 a0bc 7940 c6bc 8f03 fc3c
00000390: 8222 c8ba 7b13 f13c e1bc a63d bc4e e1bc
000003a0: fe4f a63d b4f5 06bb 68a2 adbc 8940 c63d
000003b0: cbb3 543d c30e acbd 1c25 e53c 03d6 dc3d
000003c0: d4e7 91bd 799b e4bd 6f70 84bd ec82 e33d
000003d0: f34f 5bbd a081 3abd 554a 103d 0615 623d
000003e0: c2ad 15be 870c 17bc c2b4 06bc a8c6 95bc
000003f0: 23a8 b6bc 69c1 263d 6587 b4bd 9628 15bd
-0.023525324 0.01975632 0.007121255 -0.0062971716 -0.16721775 0.032969978 -0.023640236 -0.040918015
-0.102282204 0.043480475 0.06591454 -0.06672814 -0.019696554 -0.026671253 -0.1178689 0.030684883
0.04743265 0.019321172 0.07289282 0.10648031 -0.03244922 0.05558958 0.09730025 0.11426205
-0.0023846037 0.017530093 -0.030644706 -0.029405262 -0.03434252 0.0029365988 -0.12294476 -0.010436108
-0.045559123 0.06665176 -0.011819318 0.04302396 0.08249561 -0.09737061 -0.027749466 0.05538506
-0.09058505 -0.031626023 0.06960563 0.093347415 -0.0020546792 0.06930107 -0.015715195 -0.08594535
0.04984481 -0.06888492 -0.059818767 -0.026643984 0.06120415 0.02368918 -0.14563629 0.059132576
0.02471416 0.101779625 -0.0039784582 -0.044611253 -0.04985543 -0.087203994 -0.0063926065 -0.010990386
0.073863044 0.052540462 0.07270955 -0.017218553 -0.06137271 -0.19373094 -0.0728843 0.043071773
0.0018441388 0.0378073 -0.029793438 0.009111914 -0.027868032 -0.006723749 -0.075385265 0.17757587
0.13103649 -0.07558166 0.0042643077 -0.036250193 -0.051672645 0.036814958 0.07320105 0.044181686
0.07597905 -0.031214837 0.07996676 0.047699075 0.01822514 -0.07022382 -0.06172186 0.071412794
-0.0287862 -0.025868423 0.0004134325 0.014872222 0.011798806 -0.020144744 -0.10362262 0.058640737
0.038235784 0.051299978 0.084723 0.062961966 -0.04228634 -0.16858594 0.011651919 0.10891235
-0.10930234 -0.068854384 0.077436365 -0.011082563 -0.009044106 0.035291918 -0.022282792 0.042847645
-0.05378336 -0.015102334 -0.052829303 0.11586353 -0.022448141 0.054163773 0.020998769 -0.06507908
0.09781536 0.064302 -0.047161147 -0.013678481 0.078558244 -0.08260585 0.061670687 -0.06470685
0.08033967 -0.04868119 -0.097952805 0.034988753 0.11188474 -0.04447801 -0.08735909 0.07915568
0.10585275 -0.06840525 0.06533695 -0.028483598 0.0042846813 -0.051138986 0.0070250263 0.08804134
0.013767407 0.036862306 -0.017309185 0.033458766 0.057892643 0.06858697 -0.0128606 0.050190296
-0.0025184832 -0.04128325 0.04179956 0.07417323 -0.017312339 0.026048457 0.04176475 -0.022574292
0.10097071 0.033805385 0.08918737 -0.045095243 -0.10107657 0.07199932 -0.00893424 -0.09143393
-0.006055883 0.12956361 -0.018840043 0.06839761 0.057351146 -0.09242048 0.06550871 0.03620756
0.036340352 -0.037540924 -0.010553281 -0.03545197 -0.04245324 -0.057316348 0.05742136 -0.05791966
-0.056780085 0.081220284 0.04726499 0.06484354 -0.030088533 0.061277594 -0.01583606 -0.058540374
0.1101781 -0.02092655 0.10103854 -0.018395143 0.003963015 0.08518602 0.02090633 0.06687721
0.027878337 0.023913182 -0.10358568 0.08627866 0.15045752 0.010773908 0.0535792 0.0791394
-0.00088863866 -0.0074538034 -0.022301845 0.020851772 -0.045984294 -0.04005199 -0.03266912 0.013750984
0.040918168 -0.019549713 -0.024200665 0.030763416 -0.0015269073 0.029428234 0.081414945 -0.027503364
0.08120726 -0.0020593228 -0.021195605 0.09680278 0.051929276 -0.08401253 0.027971797 0.10783007
-0.07124296 -0.111624666 -0.064667575 0.11108956 -0.053543042 -0.045533776 0.03522714 0.05519583
-0.14617065 -0.009219295 -0.008221807 -0.018283203 -0.02229697 0.040711794 -0.08814887 -0.03641566

a2.bias f4 [16]
00000000: a768 1c3d 4baa b8bc a1f5 48bd 71a6 c73d
00000010: 8981 ca3c 21ee 98bd 2f27 01bd 72bb c93d
00000020: 6d49 4739 8de6 5d3d 1c8e c23d 8610 fcbb
00000030: b015 12bd 44e4 babd a44c a0bd 1502 1c3d
0.03818574 -0.02254214 -0.049062375 0.09748543 0.02471997 -0.074672945 -0.03153151 0.098502055
0.00019005472 0.05417495 0.094997615 -0.0076923994 -0.035665214 -0.091255695 -0.07827118 0.038087923

a3.weight f4 [32, 16, 3, 3]
00000000: 52e2 8bbc 9a59 ef3c d710 163d 27cc 403d
00000010: d0ea 923d 3a14 ad3d a910 b73d bded 8d3d
00000020: f308 86bc d63a 4dbc 80ad b0bc 3a02 093d
00000030: 0756 d6bc 497f 8e3c 3062 083d 2bea c2bd
00000040: e6d1 9e3a aad7 ebbd e9a9 803d 4461 b53c
00000050: 5461 94bd a8e6 e43d 0a7c 263d 3fa2 dcbb
00000060: 758f b43c e501 fabd f6e1 ddbc f59c f03d
00000070: 3446 4e3d b04a e1bd 7d28 123c 01a5 fabd
00000080: 4c3e 7abd 43b7 293d 1420 afbd b0cd 653c
00000090: 1ff3 dfbd 3bb4 cdbd 77d2 0dbd 87a1 993d
000000a0: 8a9f 273c c871 1dbd 581a 20bc b777 053e
000000b0: ccb1 883d 9c4b 793c 2ebc 223b 4535 c4bd
000000c0: c926 e1bd 3071 cb3d 2265 49bd 49c4 373d
000000d0: e65a a8bd 1427 42bc cd85 663d 25ee c93d
000000e0: 0875 923c f9de f33c 4c70 4d3c 5ee2 fb3c
000000f0: a61c 7b3d 174c 053e a8d2 1ebe bcb6 2e3d
00000100: af72 c7bd 8be1 9bbc 3834 8d3d 6028 dabc
00000110: 7598 e83c a4d0 d9bd a3ce d53d 08c0 de38
00000120: aff6 273d 9b91 96bd 88f0 97bd e476 c1bd
00000130: 6c99 3d3d b12d 4a3d b4af d63c 7dd0 cfbc
00000140: f4eb d73c ed5f ae3b 8717 6f3c fc73 3cbd
00000150: 6aea 99bd 3bc3 b9bd a0d4 6a3a a635 453d
00000160: 154b 89bd 6ed1 aa3d 409a d3bc e53c fbbc
00000170: 73b7 da3c 94d5 81bd 463b e43b 7c55 18bc
00000180: 77ef 873b a6c0 b43c bfa8 51bd 27a0 36bc
00000190: 3a37 bcbd faac 5e3b 981b d13d 253f bebc
000001a0: a611 033d 2bef f43c 081d 6f3d 8db7 c93d
000001b0: 5c86 7dbd 651e 1e3d ca13 b73d 9079 b33d
000001c0: 6881 acbd e338 ef3c 56ae 363d e5e8 a33c
000001d0: e1f3 b73b af9d 7c3b fb54 583d bda0 e23d
000001e0: 1f52 853d dccf 8b3d 3da0 853d 1d8f 4a3d
000001f0: 62f2 b6bd 7196 f23d 3092 adbd 5ddf 203d
00000200: 9554 1c3d 4507 a43d 8cd8 25bb 43fd 923a
00000210: 2403 293e 7707 313d 3af9 6b3d 51c9 b9bd
00000220: 2657 f83d e10d b73c fdf1 1ebd 18cd e3bd
00000230: 6dcb a5bd 88a7 c2bc a19d 87bd 439b e6bd
00000240: 7805 bf3b c34f eebb 7d54 50bd 818c 213d
00000250: 52bd 9fbd 5a68 de3c 8cb2 f53b 23bf 563d
00000260: 2d21 8d3c 26d9 9cbd 8116 763d bd1c 563d
00000270: d426 27bd a09f d5bc f415 ab3d dfd5 053d
00000280: be7a a63d 4581 09be c1d6 693c 22d0 14be
00000290: 240d b93d 4919 263c 1f51 ca3d 7a2e 47bd
000002a0: fd46 1d3c e12e eabc f442 43bd 0306 2d3d
000002b0: 828e 51bd cd72 633d c06e 1a3d f462 ea3d
000002c0: 71b3 ea3c 4cf0 083d 8e8e 82bd 1d7a 773d
000002d0: d8dd 55bc 6612 93bd c9d8 b7bd d852 10bd
000002e0: bf1e 2d3d f620 753d f2a8 76bd 2ce9 283d
000002f0: 657f f53b 6853 cb3c 0d43 0bbc fc3e e23c
00000300: c7cb 8d3d c141 d43c ca37 173e 99a2 e13d
00000310: cbd5 3dbd ee50 8abd 36df 3d3d 20df 0abd
00000320: 5df5 c83b f5f4 b4bb 1fa4 cc3d 977c cabd
00000330: 2df9 fa3d 5c7e 0e3d 4124 4d3d bd9e 0c3d
00000340: b840 e8bc c6f4 3abe 8b78 d4bd a9e5 d83d
00000350: c31c 19bc 430c 7bbc b567 04bd ca4d adbd
00000360: b1eb 89bd 3005 833d 7cf7 9ebc 9d60 893c
00000370: 724f e33d 3783 9ebd 09dc 26bd c5a5 00be
00000380: 72ac ae3c 05f1 20bc 8615 163c 75cf 2abc
00000390: d4e8 4abd f4f0 eb3c eaca 1b3e 96cd caba
000003a0: 2860 96bd 36a5 ccbc 82e8 eabc d276 50bd
000003b0: a459 65bd 93ff 083c 3605 b7bd 8147 5abc
000003c0: a5a7 eb3c c0a3 fdbb 987f 9bbd 9e99 5c3c
000003d0: a592 78bc b0fa a6ba b0bb 86bd 1fc6 28bd
000003e0: a8d0 cb3d 2dde 8e3d fd05 90bd 05c2 cbbd
000003f0: bea3 da3c 9e13 6fbd 2363 4fbd b191 b7bd
-0.017075691 0.02921753 0.036637153 0.047069695 0.07173693 0.084511235 0.089387245 0.069301106
-0.01636169 -0.012526235 -0.021567106 0.03344939 -0.026164068 0.017394679 0.033296764 -0.0951732
0.0012116998 -0.11515744 0.06282408 0.022141106 -0.07245126 0.11176807 0.040645637 -0.0067332084
0.022041062 -0.122073926 -0.027085286 0.11748687 0.05035992 -0.11000574 0.008920786 -0.12238503
-0.061094567 0.041434538 -0.0855104 0.0140260905 -0.109350435 -0.10044142 -0.034624543 0.07501512
0.010230908 -0.03843859 -0.009771906 0.13033949 0.06674537 0.015215781 0.0024831402 -0.09580473
-0.10993726 0.09933698 -0.049168713 0.044864926 -0.082204625 -0.011850137 0.056279946 0.098598756
0.01787807 0.029769408 0.012538981 0.030747589 0.06130662 0.13017307 -0.15510046 0.042654738
-0.09738671 -0.019028446 0.068947256 -0.02663058 0.02839301 -0.10635498 0.104398035 0.000106215535
0.04100674 -0.07351991 -0.074189246 -0.09446505 0.046288893 0.04935998 0.026206829 -0.02536797
0.026357628 0.005321494 0.014593012 -0.04600905 -0.07515414 -0.090704404 0.0008958075 0.048146866
-0.06703774 0.08340727 -0.025830388 -0.030668685 0.026698804 -0.06339565 0.0069650738 -0.009297725
0.0041484195 0.022064518 -0.05118632 -0.011146582 -0.09190221 0.0033977614 0.10210341 -0.023223469
0.031999253 0.0298992 0.058377296 0.09849463 -0.061895713 0.038603205 0.08939321 0.087634206
-0.0842312 0.02920193 0.044599853 0.020008514 0.0056137894 0.0038546135 0.05281542 0.11065815
0.06509804 0.068267554 0.06524704 0.04945289 -0.089329496 0.11845101 -0.08475149 0.039275516
0.0381666 0.08009199 -0.0025306074 0.0011214394 0.16505104 0.04322001 0.057610728 -0.09071601
0.12125997 0.022345485 -0.038804997 -0.11123103 -0.08095441 -0.023761526 -0.06621862 -0.112600826
0.0058295093 -0.007272692 -0.050861824 0.039440636 -0.07799782 0.027149368 0.007498091 0.052428376
0.017227734 -0.07658605 0.060080055 0.0522735 -0.040808514 -0.026077092 0.083537966 0.032674666
0.0812888 -0.13428219 0.014272393 -0.14532521 0.090357095 0.010137864 0.09878754 -0.048628308
0.009599444 -0.028586807 -0.047671273 0.04224206 -0.051161297 0.055529404 0.037703276 0.11444655
0.028650017 0.03343229 -0.063748464 0.06041919 -0.01305338 -0.071812436 -0.08976895 -0.035235256
0.04226565 0.059845887 -0.060219713 0.041237995 0.0074919933 0.024820045 -0.008499873 0.027617924
0.06923633 0.02591026 0.14767376 0.11017341 -0.046346467 -0.06753717 0.04635545 -0.033904195
0.006132765 -0.005522365 0.09992241 -0.09887045 0.12254558 0.034788474 0.050083403 0.034331072
-0.028351173 -0.18257436 -0.10374554 0.10590679 -0.009345236 -0.015322748 -0.032325465 -0.08462103
-0.06734408 0.06397474 -0.01940512 0.016769702 0.11099137 -0.07739871 -0.040737186 -0.12563236
0.021322463 -0.0098230885 0.009160405 -0.010425438 -0.04953845 0.028801419 0.15214124 -0.0015472646
-0.07342559 -0.024981122 -0.028675321 -0.050894566 -0.05599369 0.008361715 -0.08936541 -0.013322712
0.028766463 -0.007740468 -0.07592696 0.01346436 -0.0151716815 -0.0012739506 -0.06578767 -0.041204568
0.099519074 0.069759704 -0.07032392 -0.09949116 0.026689406 -0.058368318 -0.050631654 -0.08963335

a3.bias f4 [32]
00000000: aa09 50bd eb7c 4bba d87a a4bd 5b48 be3d
00000010: 9ce4 b73c e385 57bc e019 bebc a6cc 763d
00000020: 71da 613d 32bf 1a3d a641 8abc 7c7c 533c
00000030: 0702 763d 9067 9d3d ba12 97bd 0e2f f1ba
00000040: 8bf3 343c 7b48 9f3d 7059 073b f2e9 53bd
00000050: 45a3 c03c 00d8 c0bd 8b3d 00bd 8d05 11bb
00000060: 01b2 cd3c 7bd9 993d 36dc 143a 7510 3a3d
00000070: 56aa a9bb 1fcd 333d ac55 ff3c 6fca 853d
-0.050790466 -0.00077624497 -0.08031243 0.092911445 0.022447877 -0.01315448 -0.023205698 0.06025376
0.055139963 0.037779994 -0.016877007 0.012908097 0.060060527 0.076857686 -0.07376619 -0.0018400864
0.011044393 0.077774964 0.0020652674 -0.05173678 0.023515353 -0.09416199 -0.031308692 -0.0022128553
0.025109293 0.07512184 0.0005678566 0.04542585 -0.0051777763 0.04389679 0.031168781 0.06532752

b1.weight f4 [32, 32, 3, 3]
00000000: 0470 d93c 4446 99bc e2c6 5d3d a21a 6bba
00000010: 3aa8 e5bb d691 63bd a538 ef3c 0de0 2cbc
00000020: afa3 7dbd 7155 723c 0a65 7a3c c24c ce3c
00000030: bd1e b2bb 8cc8 d03c dfef acbd 4c05 53bd
00000040: 4f8b ba3d f962 16bc 10c8 023d 911e a73c
00000050: e07c dbba c67f 983c 8068 43bc ba84 70b8
00000060: f888 f5bb 96a4 cbbb 302d 06bc 3805 1ebc
00000070: 0e09 233d 94dd 643d e163 123d a231 a83d
00000080: 09db e3b8 d899 a9bd 9371 1abd 724f 1cbe
00000090: 33fa 38bd cb74 0dbd 2e47 493d 4ea4 e13d
000000a0: 3c94 3cbd a1ef 7a3d 92df ee3d acab 13bd
000000b0: 393e ffbd 6e11 24bd 5070 21bd 26e8 9bbb
000000c0: 9df4 163d 22f5 413d 66b8 dc3c 7d94 1e3d
000000d0: fa12 7e3d 243a c4bd 42aa 4dbd fb9d e3bc
000000e0: 0e63 533d 74d6 7e3d 2acc 3dba be92 d8bd
000000f0: 3f00 903c ebce fbbb ba57 26bc 307c 74bb
00000100: 9f0d 2cbd 8442 8bbd 4416 8c3d f000 dabd
00000110: 87c9 2abd b5c1 19be 551f 2cbc e74e 4a3d
00000120: 6a28 ed3a bcbe 393d c684 35bd cf5a 883c
00000130: 34d2 9cbd 0070 543c adae 83bb 987a 9ebc
00000140: 9fc7 a0bc 352e a73c 4e07 78bb 92fb 82bd
00000150: 6161 e33c 3ccf 3bbd 1072 a93d 3ce5 273d
00000160: 80c0 f6bc dbb7 eebd 4172 34bd fe29 dbbc
00000170: 97cf 223d 45e1 093c 571d 313c 8b43 86bc
00000180: e21e 51bc a5b0 803c b1d2 0a3c a508 043d
00000190: e79e 1ebd 0caa 203d da19 dbbd 16f3 55bc
000001a0: 6940 e83c afc5 893d 699f 1bbd 3afb e03d
000001b0: facd c8bc 5f50 43bd a995 113d b541 b2bd
000001c0: fc18 9c3d e2cc 313b e761 2bbd 8467 5d3c
000001d0: f245 5e3d a0e6 ad3c 74f7 913d cf35 6cbd
000001e0: 11c2 2fbd 880a 513d 796f 9dbd e4f0 8cbd
000001f0: 073d 883b 129b dbbd 6c70 aeba 400a 0abd
00000200: 3484 ab3d cb71 c23b 6c3b 803d c2aa d2bd
00000210: 1d87 aabc 29fa 533d 8a10 febc ebb8 a33b
00000220: f6fa c83c 21ff 4fbd 3f7a 653d 6eec 1ebd
00000230: c7da 853d d639 973b 3da3 d2bc d9ad 99bd
00000240: 98b7 fd3c 8fd2 153e 7d54 d8bd c2a4 1a3e
00000250: efd6 31bd 432c 983c 63c9 81bd 39ee 2abc
00000260: 9548 3ebe a0fd 883d 6acf b03d d9dc 123d
00000270: c555 43bc a533 22bd 87a6 b53d e734 f23c
00000280: 3b26 10be 3309 ebbc 888d 583d d148 39bc
00000290: 73d4 863b cd3e 203c dd84 fbbc 6d4e b6bc
000002a0: 1503 e73c 84f3 14bd 8998 17be 3063 9d3b
000002b0: 0b5c 51bd b23d 6a3c 9555 163d e992 53bd
000002c0: ea9d 963d b58a 3b3d d8ae 57bd c653 493d
000002d0: e619 3b3d c9c1 833d 4b40 8bbb e935 0d3d
000002e0: e8cc 933d aee3 313d 42a4 dfbc a36b a63d
000002f0: 88c2 14be 5b30 083c e943 02bd 2cf8 8c3c
00000300: 2823 373a 87ff 6d3d 80b7 8cbd cccd 70bd
00000310: 786c 373d 6564 15be c662 ab3c ae78 143d
00000320: e6c1 823d c611 eebd 2360 c8bc bd60 c4bc
00000330: fa80 a0bd 985f 7d3d 3574 7a3d b5c0 943d
00000340: 1b46 ca3d 9592 813b e32a c83b 9afd f03d
00000350: f438 36bc 22c9 30bc c3d7 6ebc 9fba ac3c
00000360: 5bbf 9abb 78ab 523b c9b9 07bd 0d75 33bd
00000370: 9030 a13d 905c 0abd 310c c9bd 6f2b cd3c
00000380: 39d1 263d 31d9 e8bc d915 243d 76d9 d03c
00000390: 308a b43d d7d9 a6bc 80a2 673d e8cf 9bbd
000003a0: f519 91bd 8b71 d73c 8599 8cbd 7f27 d8bc
000003b0: 5893 713c 610d a33d 6c1d 573d 69c9 5a3d
000003c0: 8453 43bc d511 cd3b 59f3 4cbb 4281 67bd
000003d0: eca1 753d fc61 e1bd 3fc7 b93d e70c 9c3d
000003e0: 6637 693c 7d6a 8cbd c42a 133d 6ba0 ffbc
000003f0: b38a 9bbc cebf ef3c 7a59 a9bc 234c c8bb
0.026542671 -0.018710263 0.054144748 -0.0008968507 -0.0070085796 -0.055559002 0.029201815 -0.010551465
-0.06192368 0.014790879 0.015282879 0.025183085 -0.005435793 0.025486253 -0.08444189 -0.051518723
0.09108602 -0.00917887 0.031929076 0.020400317 -0.001674559 0.018615615 -0.01192677 -5.734407e-05
-0.0074931346 -0.0062146885 -0.0081894845 -0.009644799 0.039803557 0.055875376 0.035739783 0.08212592
-0.00010865002 -0.082812965 -0.03770597 -0.15264681 -0.045160484 -0.03453521 0.049140148 0.11017667
-0.046039805 0.061263684 0.116637364 -0.03605239 -0.1246304 -0.040055685 -0.03941375 -0.004757899
0.036854375 0.047352917 0.026943397 0.03871583 0.062029816 -0.09581402 -0.0502112 -0.027785292
0.051608138 0.062216237 -0.00072402006 -0.10574864 0.017578242 -0.0076845787 -0.010152752 -0.0037305467
-0.042005178 -0.06799796 0.06840184 -0.1064471 -0.041696098 -0.150153 -0.010505517 0.049391653
0.0018093709 0.045347914 -0.044316076 0.016644863 -0.076572806 0.012966156 -0.0040186257 -0.019345567
-0.019626437 0.020407775 -0.003784615 -0.063956395 0.027756395 -0.04585193 0.08273709 0.0409901
-0.030121088 -0.116561614 -0.044054274 -0.026753422 0.039748754 0.008415525 0.010810218 -0.016389629
-0.012763711 0.01570923 0.008473084 0.032234807 -0.03872576 0.03922467 -0.1069829 -0.0130584445
0.028351026 0.06727158 -0.037993822 0.10985418 -0.02451228 -0.04768407 0.035543118 -0.08703939
0.07621953 0.0027130176 -0.041841414 0.01351345 0.054265924 0.021228135 0.07127276 -0.057668503
-0.042909686 0.051035434 -0.07687277 -0.06881884 0.0041576657 -0.10722937 -0.0013308651 -0.03370118
0.08374825 0.0059339753 0.06261334 -0.10286476 -0.02081638 0.051752243 -0.031013746 0.004996409
0.02453373 -0.05078042 0.056024786 -0.038799696 0.06535869 0.004615049 -0.025712604 -0.07503862
0.030971333 0.14631103 -0.1056299 0.15101913 -0.043417867 0.018575793 -0.063372396 -0.010432773
-0.18582375 0.06689 0.08633311 0.035855148 -0.0119223045 -0.039600033 0.08869653 0.029566241
-0.14077084 -0.02869091 0.05286935 -0.011308865 0.0041146814 0.009780598 -0.030703003 -0.022254193
0.028199712 -0.036365047 -0.14804281 0.004803084 -0.05111317 0.014296936 0.03670271 -0.051653776
0.073543385 0.04578658 -0.05265698 0.04915216 0.045678996 0.06433446 -0.0042496077 0.03447524
0.07216817 0.043430023 -0.027300004 0.08125999 -0.14527333 0.00831231 -0.031803045 0.017208181
0.00069861347 0.058105018 -0.06870937 -0.058790013 0.04478118 -0.14589079 0.020921122 0.0362479
0.063846394 -0.11624484 -0.024459904 -0.02397191 -0.078371 0.061858743 0.06114598 0.072633184
0.09876653 0.0039542415 0.006108628 0.11767121 -0.011121977 -0.010790141 -0.014577809 0.021085082
-0.0047225184 0.003214566 -0.033136163 -0.0438128 0.07870591 -0.03377968 -0.098167785 0.025045125
0.040726874 -0.028423877 0.040059898 0.025494318 0.0881542 -0.020367546 0.056551456 -0.07608014
-0.07085029 0.026299259 -0.06865219 -0.02638602 0.014744602 0.07961536 0.052518293 0.053414736
-0.011921767 0.0062582293 -0.0031272976 -0.056519754 0.059968874 -0.11005017 0.09071206 0.076196484
0.014234399 -0.068562485 0.035929456 -0.031204423 -0.018987035 0.029266264 -0.020672549 -0.006112592

b1.bias f4 [32]
00000000: 7879 76bc 8e3e acbc b63f 3ebd 9022 2bbb
00000010: 8dea a6bc 4e0e 35bc 7f87 36bd fa48 883c
00000020: 9f5b 8fbd 1ae3 cab9 507b b7bc 5e52 0abd
00000030: aa9d 1d3d 7497 50bd dbbe 97bc 9187 f13c
00000040: a7a5 8ebd 467d 4dbd 7176 14bc 776e c1bc
00000050: 50cd dc3c fa12 99bd 7cf9 233d a900 5cbd
00000060: ee3d be3c a623 fa3c 096e 013d 9924 1abd
00000070: be03 7bbc 9a26 663c bf91 33bd ddd4 9d3c
-0.015043609 -0.021025922 -0.04644748 -0.002611313 -0.020375514 -0.011050774 -0.044562813 0.01663636
-0.06999897 -0.00038697646 -0.022397667 -0.033769958 0.03848044 -0.050925687 -0.018523624 0.029483588
-0.069651894 -0.0501683 -0.009061442 -0.023612244 0.02695337 -0.074743226 0.04003285 -0.053711567
0.02322289 0.030534577 0.03159908 -0.03763256 -0.015320716 0.014047289 -0.043840166 0.01926654

b2.weight f4 [32, 32, 3, 3]
00000000: 250d 29bd b2e9 48bd 1a40 b23c bcfe 553d
00000010: fa1c 16bc 0bc4 61bd e441 e23c 9868 53bd
00000020: c649 ecbc 1894 33bc 4261 013d 94f1 4d3c
00000030: 5003 153c d14e 933c d076 0dbd 72fa 0dbd
00000040: 51cb f8bc 325c ca3c cc29 85bc 703a babc
00000050: ab8f 66bd af22 45bd 8c9b 5bbd 994f 3e3d
00000060: 4f8d 343d ad59 563d 63a9 363d 762d 19bd
00000070: be26 a33c 8b18 0b3d 207e 013b 6867 53bc
00000080: 16da ff3c acc1 383c 78a6 143d 30fa 6abb
00000090: 635c d5bc 6563 3fbd 0453 23bd c138 e73c
000000a0: 0aac 1fbd 369b c83c 126d 14bc b539 2c3d
000000b0: c59c 30bd a07f 123c 0e08 8abd 827d e2bc
000000c0: 155c b0bc eaf5 88bc c726 e7bc 6169 103d
000000d0: 17ce 2dbd 9b15 6dbd 6089 f6bc 1406 d03c
000000e0: bcaf 683c e103 773b 3700 13bd a801 0dbd
000000f0: 8f2f 593d 956f 5f3d 742c c6bc 4004 30bd
00000100: b504 4eb9 d680 9d3c d83c 573b 71b1 be3c
00000110: d358 243d 3989 c73c b3d6 edbc bf77 e9bc
00000120: d8aa 23bc 6f20 423d c8ca 883b 33e1 643d
00000130: 0020 7137 5c56 68bd 6acd 523d ad3c 4a3d
00000140: c623 5dbd e2a2 dcbc 7c82 4e3c 8e57 da3c
00000150: 0b59 96ba ef29 58bd 5814 94bb 6971 2ebd
00000160: 684a 38bc dba7 613d 5e65 c7bb 4841 89bc
00000170: e8f3 a7bc 7901 3e3b 8cc0 68bc 5548 203d
00000180: e62c 65bd 661f 403c e0ef 4ebd 2d9e 37bc
00000190: 9ea0 05bd bda3 5bbd 27c3 65bd 6f63 6b3c
000001a0: c6e5 d13c e79f afbc 0e32 b0bc 9c19 293c
000001b0: 0179 2ebd 41fb 523c de73 81bc 6629 1ebd
000001c0: e095 e2bc 8cb3 7cbc 2f43 6f3c 884a 66ba
000001d0: 989f 4fbc 032f 59bd 0204 83bc 66cc afbc
000001e0: 439a 123d eb8e 453d fd75 0c3d cd48 5dbd
000001f0: aab3 65bd c27f da3c bb75 df3c 0d48 67bd
00000200: 7826 fc3b ff2e 0a3b c251 9abc 9794 543d
00000210: 3fd5 8e3a 00c0 30bd 18f0 25bd f58b 5dbd
00000220: 16e6 593c a8dc 38bc 4633 8cbd 65a8 e53c
00000230: 0624 54bd 1fcd 0a3d 085a 70bd e6fd f63c
00000240: 0430 c13c 2905 89bc a440 6ebc b61c c53c
00000250: 0ce1 2bbd 2c92 87bc 4a46 9bbc 9ab8 ef3c
00000260: 3897 c13b deb3 283c 4986 85bd a8f0 0cbd
00000270: 7afc da3c 4656 043d 64c1 5a3c 57cb 063d
00000280: 297f 72bd b699 ae3c 97d0 da3c d1b2 9e3c
00000290: dab4 9a3c a0ed 32bd 4a48 92bc 73af 5e3d
000002a0: 93ab a23c c8b0 3abd 589b d9bc 907a 053b
000002b0: 4c74 c5bc 466f cd3c c6f5 033d 9632 adbc
000002c0: 6020 79bc 564c b4bc 0e8b f3bc 942a 5ebd
000002d0: 9600 2bbd 21d3 38bd 9a49 c5bc e631 cc3b
000002e0: 752f 3a3d 9820 a93b 775f 86bc 0cf3 46bb
000002f0: fa1f bc3c a2ef ad3c 33fc 5b3d 31be 70bd
00000300: ecb2 4c3d 39d2 3ebd c8da a93b 7566 203d
00000310: ba66 aabc 9a8b 68bd 9b50 273d 9f4c 8abd
00000320: a000 0abd 77fc 93bd 800b 273d 8844 99bc
00000330: 20da 2b3d 1f0b ffbc 2251 4ebd f2e8 233c
00000340: 5ff0 0e3c 50cb 5abc 2411 ed3b dfbc dfbc
00000350: 32f1 45bd 0565 983c 8d5a 213d 08c3 11bc
00000360: e0ba 953b 10ca 45bd 4c5b 4cbc 93a6 82bd
00000370: e8cf c93b 0016 023a 56a4 90bb a8a9 53bd
00000380: 0873 12bd b0f4 86bc 6789 4dbc 064a 29bd
00000390: feb8 87bd 367e 0e3d 6af8 49bd 55a7 5abd
000003a0: cc72 23bd e3d8 2d3d 1762 f8bc 6e21 38bd
000003b0: 5e37 f93c 49ce 043d 92de c6bc cc1c 6fbd
000003c0: 607b 283d 0a2d d83c 08f4 70bd f86d 17b8
000003d0: 905e 31bd c60e 65bd 50e2 02bd 35da 383d
000003e0: e667 ea3c 04ba 36bd 14d6 8abc 2cb7 623c
000003f0: 792e 9b3c a6ba 9c3c 9c97 313c 4883 283d
-0.0412723 -0.049050994 0.021759082 0.052244887 -0.009162182 -0.0551186 0.02761931 -0.05161342
-0.028843772 -0.010960601 0.031586893 0.012569804 0.009095028 0.017981919 -0.034537137 -0.03466267
-0.030370386 0.024702165 -0.016255282 -0.022732943 -0.056289356 -0.04812878 -0.053615138 0.04646263
0.044080075 0.052331615 0.044595134 -0.03739687 0.019915935 0.033958953 0.0019759014 -0.012903072
0.031231921 0.011276644 0.03629157 -0.003585469 -0.02604503 -0.04672565 -0.03987409 0.028225305
-0.03898243 0.024488073 -0.0090592075 0.04204722 -0.043118257 0.008941561 -0.067398176 -0.027647737
-0.021528283 -0.016718823 -0.028216733 0.035256747 -0.04243287 -0.057881933 -0.030094802 0.025393523
0.014202055 0.003769152 -0.035888877 -0.034425408 0.05302387 0.054549772 -0.024191119 -0.042972803
-0.00019647444 0.019226473 0.0032842662 0.02327797 0.040123772 0.024357425 -0.02903304 -0.028499482
-0.009989463 0.047394212 0.004174564 0.05587883 1.437217e-05 -0.056722984 0.05146543 0.04937427
-0.053989194 -0.026933137 0.012604352 0.026653077 -0.0011470629 -0.052774366 -0.0045190267 -0.042588625
-0.011248209 0.05509172 -0.006085082 -0.016754761 -0.020502046 0.0028992577 -0.014206063 0.03913148
-0.05595102 0.011726236 -0.05052173 -0.011207146 -0.03262388 -0.05362295 -0.056094315 0.014366969
0.02562226 -0.021438552 -0.021508243 0.010321047 -0.042595867 0.012877286 -0.01580232 -0.0386137
-0.027659357 -0.015423667 0.01460342 -0.000878491 -0.012672327 -0.05302335 -0.015993122 -0.02145977
0.035791647 0.048232 0.03429221 -0.054024506 -0.056079544 0.026672248 0.027277818 -0.056465197
0.0076950155 0.002108514 -0.018837813 0.05189952 0.0010897293 -0.043151855 -0.040512174 -0.05408855
0.013299486 -0.011283077 -0.06845717 0.028034398 -0.051792167 0.033887025 -0.05867961 0.030150365
0.023582466 -0.016726093 -0.014541779 0.024061542 -0.04196267 -0.016549192 -0.018954415 0.02926283
0.0059079193 0.01029679 -0.065197535 -0.034409195 0.026731718 0.03230884 0.013351772 0.032908764
-0.0592033 0.02131353 0.026710792 0.019372376 0.018885065 -0.043683648 -0.017856736 0.05436654
0.019857204 -0.045578748 -0.026563331 0.0020367242 -0.024103306 0.025077473 0.03221681 -0.021142285
-0.015205473 -0.022009056 -0.029729392 -0.054239824 -0.041748606 -0.045123223 -0.024082948 0.0062315343
0.045455415 0.005161356 -0.016402943 -0.003035727 0.022964466 0.02123243 0.053707313 -0.05877513
0.04997532 -0.046587203 0.0051835515 0.03916021 -0.020800937 -0.05677376 0.040848356 -0.067528956
-0.033692002 -0.07225888 0.04078245 -0.018709436 0.041956067 -0.031133233 -0.050370343 0.010004269
0.008724301 -0.013354138 0.0072347093 -0.02731174 -0.048325725 0.018602857 0.039392997 -0.008896597
0.0045693964 -0.048288405 -0.012472939 -0.06379428 0.0061588176 0.00049623847 -0.0044141216 -0.05167547
-0.035754234 -0.016474098 -0.012544966 -0.04133036 -0.06627081 0.034788333 -0.04930917 -0.053382237
-0.0399044 0.042443167 -0.03032021 -0.044953756 0.030421909 0.03242329 -0.024276052 -0.058377072
0.041133285 0.026388664 -0.058826476 -3.6103622e-05 -0.043303072 -0.055922292 -0.03195411 0.045129973
0.028613996 -0.044610992 -0.016947784 0.013837617 0.018943058 0.01913197 0.010839369 0.041140825

b2.bias f4 [32]
00000000: a999 36bd 91d0 2b3b c43f 223d 1caf dbbc
00000010: 2ece e03c a523 3c3d ecb8 313c 9e22 2a3d
00000020: a08a de3b b465 8abc 217c 163d bea7 1dbd
00000030: 1950 e5bc 0d17 da3c 7b8a 84bd 6ddb 01bd
00000040: 9e5b 2cbd 1449 2b3d 1176 0fbd 74b4 83bc
00000050: 7f3a dc3c 9d5f 3b3c 6288 33bd 59e3 d2bc
00000060: 88a4 383c ee96 903c 265e 433d d222 69bb
00000070: fb09 263d ccab f13c 9466 eb3b e555 603c
-0.044580135 0.0026216845 0.039611593 -0.026816897 0.027442064 0.04593243 0.0108473115 0.04153692
0.0067914277 -0.016894199 0.036739472 -0.03849005 -0.027992295 0.02662232 -0.064717256 -0.0317034
-0.04207956 0.04181774 -0.035024706 -0.016077258 0.026883362 0.01143637 -0.043831237 -0.025743173
0.011269696 0.017650094 0.04769721 -0.0035573733 0.040536862 0.029500864 0.007183859 0.013692354

b3.weight f4 [64, 32, 3, 3]
00000000: a284 06bd 3084 1abd 2f7d 16bd a617 f13c
00000010: b060 9dbc d464 f6bc 2c05 c4bc 7bcc 6c3d
00000020: e2e3 dcbc 1127 7b3d 41e4 1ebc 2bf3 e03d
00000030: cb00 1cbc 6c7c a1bd 9361 40bb 2d4e d23c
00000040: c477 a6bc 9905 ca3d 6783 b3bd 5629 24bd
00000050: 5b77 103d 9adb 0e3d 43a9 843c 7f71 acba
00000060: 1e65 9fbd 8cc4 c73c 5f66 e53c b0b7 8dbd
00000070: fc85 333d 2323 093d 27dc 32bd fd53 57bd
00000080: 5d5f 763d d4d3 893d 2a6b 1c3c 1740 8e3d
00000090: 172c 0dbd 03ea ae3c db01 95bb 82cf b43b
000000a0: c7c3 bfbc fd84 26bd 9b23 8e3d 1cca 28bd
000000b0: 8e81 873d 9ed3 953d 0348 873c f8e4 dd3c
000000c0: 3ce7 20bc 10cd 6dbb f5bd 663d 3a36 c5bb
000000d0: 65a2 143b a231 0bbd c8c3 953c 1dd6 07bb
000000e0: 6db8 99bb fa40 57bd e304 b3bd 6ffd 693d
000000f0: f694 13bd 8307 823c d62d b63c 92d4 89bc
00000100: 8120 34bd 16e6 d83d 1fb5 df3d 247e d2bd
00000110: 8d9e 9e3d 6c7c 913c 564b 35bd c3e6 f73c
00000120: 60cc d1bb 1e11 643d 8440 813d 9fd8 b03b
00000130: b771 ce3c df37 8e3d 0960 ed3c b28d 7ebd
00000140: 05d8 f83c 6ec4 d4bc d722 753d 1274 5bbc
00000150: 33dc a63d 6479 1f3d 1b8c 083c bfb0 033c
00000160: 23e7 fb3c f254 633d 461f 853c d8e1 743d
00000170: 929d 01bc beb0 af3d fb4a bcbd 3071 adbb
00000180: 4721 a83d b208 e43b 8561 683d 5f19 393d
00000190: bffd 6ebd 1c0b b6bc 5a7d b43c a0c9 72bc
000001a0: e738 6b3d 4191 993c 7918 153d bcde 49bd
000001b0: 22aa c2bd c290 c33d 55b4 36bd 5036 0dbd
000001c0: 2476 d6bb 3a14 213d e103 243d 3bf0 483c
000001d0: b9c6 063d 8753 52bd 4a2d 43bc 91dd 43bc
000001e0: 55ac 13bd 28a0 a0b9 0e9c 1f3d 9c05 933b
000001f0: fc05 41bd 5360 c53d 46fd 47bd 168e 9d3c
00000200: a28e 44bd 8751 303d 3a05 583c 32ff 6d3a
00000210: 904d ecbb 9372 733c 2d84 b23c 383d 213b
00000220: 2c5b 91bc f9e2 e9bc ff41 13bd e252 973d
00000230: 94d8 29bd ad8a e73c 8658 59bd 18ae 193e
00000240: 948e c53c bbe8 9abc 9492 26bc 23f8 4c3d
00000250: 4bbb 6c3d da84 3ebd 3d5f 0a3d bd87 013d
00000260: 005b 1fba 34f5 063e 4e04 9a3b f969 be3c
00000270: 0d95 63bd 4b1d 85bb 88c6 323d 8bca f13a
00000280: 325c cf3d 8280 1cbc 0066 453d 95ca cdbd
00000290: 8b7e 183d 25d3 e7bd 63cd 8c3d 0eb7 83bd
000002a0: dc87 0fbe 28d1 0bbe 470b c83c 4137 22bc
000002b0: 7a6b 29bd 8bdc 723d 0ccf 663c 3cd3 5c3d
000002c0: 344a 24bc 0e83 f03a b1f6 543c 0bf3 2abd
000002d0: 99b5 d13c 4532 debc da80 2dba 2f4a 713d
000002e0: 3322 b1bd 6162 433d 5410 1c3d 0a29 babc
000002f0: 91e1 67bd 06d5 f3bb 97c2 96bd e045 e63c
00000300: 9988 b33c 4fab cc3c d990 f9bc 37c9 73bd
00000310: f7f7 7cbd a8b0 8dbd b2dd 45bb c171 443d
00000320: d45e db3c 91cd 02bd 8246 183d 63de 8a3d
00000330: 616f 5abc 5348 f3bc a953 393b 5b72 d33c
00000340: 7988 663d c410 473d 6ab3 b93c 8649 d93c
00000350: 2d1e 5dbb 1ca5 7ebd 34ef 283d 2795 8cbc
00000360: ac3f 54bd e590 373d 7d47 813d b281 bf3d
00000370: f997 47bd 3148 9dbc 5c89 53bb 40d9 a03d
00000380: 7187 1dbd 6974 453d e0b9 27bd cef0 8f3c
00000390: 3de9 acbc ec70 873d 6cc5 ac3d 6d4d 6a3d
000003a0: f639 d2bd 8f64 8a3d d753 2fbc b826 773d
000003b0: 969c f1bd 8759 503b cdba 98bd 6cc2 4b3d
000003c0: d726 3c3d 2462 2abc 557b e23c 9ef6 07bd
000003d0: 8676 f13b 8e95 c63c 7d22 b23c c732 cf3c
000003e0: d8e9 19bd f0fa 5c3d ee49 52bd 0c20 91bd
000003f0: 311e 293d 69df 3fbc b6de 6fbd 1d8d 3e3d
-0.032841332 -0.03772372 -0.036740478 0.029430222 -0.019211143 -0.030077375 -0.023928247 0.057812195
-0.026964132 0.061316554 -0.009697975 0.109838806 -0.009521673 -0.0788506 -0.0029355034 0.025672043
-0.02032078 0.09864349 -0.087652974 -0.040078484 0.035270076 0.034877397 0.016193992 -0.0013156383
-0.077829584 0.024385713 0.028002916 -0.06919801 0.04382895 0.033480775 -0.043666985 -0.05257033
0.06014954 0.06729856 0.009547034 0.06945818 -0.034465875 0.02135182 -0.0045473403 0.005517901
-0.023408784 -0.04065417 0.06940385 -0.04120837 0.066165075 0.073157534 0.01651383 0.02708672
-0.009820756 -0.0036285557 0.0563335 -0.006018427 0.0022679802 -0.03398288 0.018281832 -0.0020726987
-0.0046911747 -0.0525522 -0.087411664 0.05712646 -0.036030732 0.015872722 0.022238653 -0.016824994
-0.04397631 0.105907604 0.10923218 -0.10277966 0.07745085 0.017759524 -0.0442613 0.030261403
-0.006402537 0.055680387 0.063111335 0.005396917 0.025200708 0.0694425 0.028976457 -0.06214685
0.030376444 -0.025972571 0.05984768 -0.013394373 0.081474684 0.038934126 0.008334185 0.008037745
0.030749863 0.055500932 0.016250264 0.059785694 -0.007911103 0.08578633 -0.09193989 -0.005293034
0.08209472 0.0069590444 0.056733627 0.04519021 -0.05834746 -0.022222094 0.022032429 -0.014818579
0.057427313 0.01874602 0.036400292 -0.04928468 -0.095051065 0.09549095 -0.04460557 -0.034475625
-0.006544845 0.03932593 0.04004276 0.012264307 0.03290436 -0.05134919 -0.011912653 -0.011954681
-0.03605302 -0.00030636904 0.038967185 0.0044867527 -0.047124848 0.09637513 -0.048825525 0.01923279
-0.047987588 0.0430465 0.01318484 0.00090788596 -0.0072113946 0.01485886 0.021791542 0.002460314
-0.01774367 -0.028550612 -0.03595161 0.073888555 -0.04146631 0.028264368 -0.05306294 0.15007818
0.024115838 -0.018909803 -0.010166783 0.05004133 0.057795804 -0.046513416 0.033782233 0.03162359
-0.0006078929 0.13179475 0.00470022 0.023243891 -0.055562068 -0.00406233 0.043646365 0.0018447203
0.10125007 -0.009552123 0.048192978 -0.10048405 0.037230056 -0.113195695 0.06875112 -0.06431399
-0.1401667 -0.13654006 0.02441944 -0.009900869 -0.041362263 0.059292357 0.01408745 0.053912386
-0.010027457 0.0018349604 0.012998269 -0.04173569 0.025599288 -0.02712358 -0.00066186266 0.058908638
-0.08649101 0.047701243 0.03810151 -0.022724647 -0.0566116 -0.007441166 -0.07361334 0.02810949
0.02191572 0.02498403 -0.030464577 -0.059518065 -0.061759915 -0.0691846 -0.0030191955 0.047960047
0.026778616 -0.031934325 0.037176616 0.06780698 -0.013332219 -0.029697573 0.0028278625 0.025811365
0.056282494 0.048599973 0.02266856 0.026524317 -0.003373991 -0.06216918 0.041243747 -0.017160965
-0.051818535 0.044815917 0.063124634 0.09350909 -0.048728917 -0.019199463 -0.0032277917 0.07853937
-0.038459245 0.04820672 -0.04094875 0.01757088 -0.02110731 0.06613335 0.08436093 0.057202745
-0.102649614 0.06757461 -0.010701141 0.06033966 -0.117974445 0.0031791644 -0.074575044 0.049745962
0.045935478 -0.010399375 0.0276467 -0.033194177 0.0073688654 0.024241235 0.02174496 0.025292767
-0.037576526 0.05395025 -0.051340036 -0.070861906 0.04128856 -0.01171098 -0.058562003 0.046521295

b3.bias f4 [64]
00000000: d636 8b3d 504b 02bd bf55 7cbd 8f64 f93c
00000010: f8b8 0d3d 8a6a 063d d4c6 6cbc e9e6 0ebd
00000020: 5f9c a63c 19bd 653d 1cfe 42bc 8650 0139
00000030: 48b1 f6bc 9401 7cbd 2872 6b3d 9d5b 93bc
00000040: 0351 07bd 199a f9bc 954d 163c cbea 833b
00000050: 1cd0 d1bc cc0e 013d 5ade 8ebc 56a5 2cbd
00000060: 3917 723d 5269 893d de08 203d 4302 0b3d
00000070: d83c 703c a705 74bd 702d 33bd 09a9 bd3b
00000080: caf0 85bd 965b 63bd 0bb8 343d cac2 bd3c
00000090: 4480 ebbc 4bc3 003d bcfe 18bd 5230 58bd
000000a0: 2f8a 49bd e3d6 043c e65a 46bd dc0a 82bc
000000b0: d4f5 883c 8598 79bd c02e 213d 37ac 8b3c
000000c0: b547 a93a e517 a3bb 2d71 60bd 1011 7b3c
000000d0: c0b5 6d3b e6ec 10bd 7079 83bd c2c1 e53c
000000e0: dba1 c8ba 4f45 07bc ddfc 1bbc 3f57 27bd
000000f0: 19e5 4ebd 7977 ae3c ed0d c93c 607c e0bc
0.067975685 -0.031810105 -0.06160521 0.030443458 0.034600228 0.032816447 -0.014451701 -0.03488818
0.020338235 0.05608854 -0.011901405 0.00012332396 -0.030113831 -0.061524943 0.057481915 -0.01798802
-0.033036243 -0.030468987 0.00917377 0.0040257922 -0.02561193 0.031508252 -0.01744001 -0.042149864
0.059104178 0.067095414 0.039070956 0.033937704 0.014662944 -0.059575703 -0.043744504 0.005787973
-0.065400675 -0.055507265 0.04412083 0.023164172 -0.028747685 0.031436246 -0.03735231 -0.052780457
-0.049204048 0.008107874 -0.04842653 -0.015874319 0.016718782 -0.06093647 0.039351225 0.017049892
0.0012915047 -0.0049772137 -0.054795433 0.015323892 0.0036271662 -0.035382174 -0.06419647 0.028046492
-0.0015307026 -0.008256271 -0.0095207365 -0.04085469 -0.050511453 0.021297203 0.024542773 -0.027403057

c1.weight f4 [64, 64, 2, 2]
00000000: 723e 253c 0e27 1abd 1701 a0bd 8d33 d23c
00000010: 5079 d0bc c289 583d 26cc ddbc 0b75 63ba
00000020: 2a94 733d 00d2 bbbb 7c21 21bd 7d49 57bc
00000030: 0829 bdbc 0557 3abd 29f2 e5bc 8c33 b9bc
00000040: 0e12 48bc b48c a4bc db8c 34bd 67ae 87bc
00000050: c833 103d 5e97 e2bc a1e8 d7bb 297b 9a3d
00000060: 6e12 cc3c e3ca 643d 0bf8 593d 3e40 20bd
00000070: 0219 28bd f837 57bd 3d6c 2dbb 1318 ed3c
00000080: 9f71 dc3c 1f28 a0bc 312b 20bd f70f 56bd
00000090: d68f 623b 4638 22bc eab2 ba3d ddd6 723c
000000a0: 72a4 4abd b251 1cbd 5c81 3bbd bdef 103e
000000b0: bc8a dabc 117e 32bd 3049 fe3c c774 3bbc
000000c0: e8a2 5e3d c877 79bd 7275 053d 4063 caba
000000d0: 3cb4 dc3c 80c5 f7bc c8f8 d9bc a433 0e3d
000000e0: a2b1 a83c 0077 adbc 46b7 53bd d147 903d
000000f0: 6f75 ab3c 7b9a 6bbd 09d0 0a3d 70bc df3c
00000100: 56dd 4fbc 335f 6b3d 194e 8b3d 1b16 003d
00000110: 8b72 7bbc c4ea 033d bcd6 60bd b2bd cabc
00000120: 34c5 4bbd adf6 723c 050c f1bc 548b 37bd
00000130: d3e6 633d 740e d83c 007d 1e3d 20e5 593d
00000140: 72db 12bd 34f8 f8bc aee6 0a3d c81d bebc
00000150: 5dc8 1abd c5b2 1dbd 6ef9 b43d 90c4 53bd
00000160: 968b 493d e6ac cc3b f6a4 8ebd 7b23 bfbc
00000170: 3480 7dbd b440 673d 0e8f 6c3d ca1b 333d
00000180: d951 3a3a 1994 233c 0992 e8bc 1df9 36bd
00000190: 310c 97bd 5a61 0e3d 73c5 573c d18f 813d
000001a0: e21f 92bd f2e7 1cbd ad7f 4f3c 1c37 8b3d
000001b0: e2f5 62bc 7131 433d 1f8b f93c 57e2 1c3c
000001c0: 0e29 973c d8d5 89bd 0438 99bc fc58 6c3c
000001d0: a82b d83c 00de 99b9 a55c 443d 0dd0 903d
000001e0: 1283 58bd f04a ebbb 6479 30bd 0c64 8e3d
000001f0: fbcb 98bd 2ed5 d7bc 56f1 fd3b 05a0 b5bc
00000200: f01a 48bd a066 973b 04c5 16bd 4250 1dbd
00000210: 6741 1e3d 3ead 783d 9ca4 443d 70ed 48bc
00000220: 248f 03be 827a 02bd 991c d6bd 29bd c53d
00000230: ca5b 08bd 397c 82bd 5cfc d6bc 0ea3 c3bd
00000240: afc3 943c 00b4 f8b9 2993 c93b f1af 873d
00000250: d254 30bd 21f7 33bd dd36 a73b b723 223c
00000260: ca95 713b e0d4 5bbc 2af3 d43d a7ab 813c
00000270: 5ce8 fcbc 88a9 5d3c adf4 74bc 0fc1 32bd
00000280: a0ac e13b 100a 9dbc c3ee 6a3d 6ca2 0cbd
00000290: 4447 debc e079 133d 9dcd 9c3d 2b4b 923d
000002a0: 200a 85bb f00d 5ebd 68d6 703c eff5 56bd
000002b0: b549 75bc 6dcd b1bb 92ce 093d 485a c23c
000002c0: 38d3 54bd 6af8 74bd 5a7f 693c d158 703d
000002d0: cc19 7a3c 0024 5b3a 02e5 f1bc cd5c 8cbd
000002e0: b343 713b 36c8 61bd fbd3 2ebd 5123 0abb
000002f0: 4f93 053d a721 94bd 1443 54bc acaa 903c
00000300: 9faa 43bd f18b 38bc a22c 44bd a379 2f3d
00000310: 635e 09bd eced 75bd 21dd 6ebb 5b1f a93d
00000320: 41e9 853c ce17 633d e955 7e3d f0e1 cebc
00000330: a796 003d 5360 67bb a9a6 3abd 053e abbb
00000340: 6784 c23c 40d4 25bd 0d6a 0a3d 96b2 b93c
00000350: 27df a03c 6711 35bd 75d4 dfbc dcc5 8f38
00000360: 82b9 77bd 7404 d23c 204d 09bd c6bf e1bc
00000370: 8ff7 d83c 515d d8bc 8104 b13c c66e 21bd
00000380: 7901 843c 4911 9a3b e60e ab3d 6e68 12bc
00000390: b7d7 a8bd 10bc 3ebd f0d5 8f3d 40d3 30bd
000003a0: 1e85 17bd 04cf e8bc 86c5 71bd 34b1 19bd
000003b0: a84c dcbc 9086 6f3d cf51 a3bc 5b00 60bd
000003c0: 42fe 393d da6f 273d 125a 3f3d 0d90 653d
000003d0: afd6 80bd 1873 313d f9f9 07bd 7e22 1e3d
000003e0: 6b8f 1dbd fe57 06bd 21e2 9a3d 333f 59bd
000003f0: 6fc8 913c 1347 39bd 47a0 17bd d226 25bc
0.010085689 -0.0376349 -0.07812708 0.025659347 -0.025448471 0.05286575 -0.027074885 -0.00086768036
0.059467472 -0.005731821 -0.039338574 -0.01314008 -0.023090854 -0.045493145 -0.028069573 -0.022607587
-0.012211336 -0.020086624 -0.044079643 -0.016562654 0.035205632 -0.027660068 -0.006589011 0.07543022
0.024911132 0.05585755 0.053215068 -0.039123766 -0.041039474 -0.05254361 -0.002646222 0.028942144
0.026909648 -0.019550381 -0.03910369 -0.05226132 0.0034570596 -0.009901112 0.091161564 0.014821735
-0.049473234 -0.03816385 -0.045777664 0.14153953 -0.026677482 -0.043577258 0.031040758 -0.011441416
0.05435458 -0.060905248 0.032582708 -0.0015440956 0.026941411 -0.030245543 -0.026607886 0.034717217
0.020592514 -0.021174908 -0.051688455 0.07044948 0.02093002 -0.05752037 0.033889804 0.027311534
-0.012687048 0.057463836 0.06802005 0.03127108 -0.015347133 0.03220631 -0.054892287 -0.024748657
-0.049748614 0.01482932 -0.029424677 -0.044810608 0.055640053 0.02637408 0.038693428 0.053197026
-0.03585381 -0.03039179 0.0339114 -0.02320756 -0.037788738 -0.038500566 0.088366374 -0.05170113
0.049205385 0.006246197 -0.069650576 -0.023332348 -0.061889842 0.05645819 0.057753615 0.043727674
0.0007107533 0.00998404 -0.028389947 -0.044671167 -0.07375372 0.03476081 0.013169634 0.06326259
-0.071349874 -0.038307138 0.012664718 0.06797621 -0.013852568 0.047654573 0.030461846 0.009575448
0.018452194 -0.067302406 -0.018703468 0.014425512 0.026388004 -0.00029347837 0.047939915 0.070709325
-0.052859373 -0.007180564 -0.043084517 0.06952676 -0.07460781 -0.02634677 0.0077497168 -0.02217103
-0.048853815 0.004620388 -0.036808982 -0.038406618 0.03863659 0.06071209 0.048008546 -0.012263641
-0.12847573 -0.031855114 -0.10454673 0.0965522 -0.033290662 -0.0637135 -0.026243381 -0.095525846
0.018159715 -0.00047436357 0.006151576 0.06625355 -0.04304964 -0.043936852 0.0051029758 0.00989621
0.0036862963 -0.013417453 0.10397942 0.01582892 -0.030872516 0.013529189 -0.014950913 -0.043641146
0.0068870336 -0.019169837 0.057356607 -0.034334585 -0.027133591 0.0360049 0.07656405 0.071432434
-0.004060045 -0.05421251 0.014699556 -0.052480634 -0.014971186 -0.0054261 0.033644266 0.02372469
-0.051959246 -0.05980722 0.014251554 0.058678452 0.0152649395 0.00083595514 -0.029528145 -0.06853638
0.0036814034 -0.055122577 -0.04268263 -0.002107818 0.032611188 -0.07232981 -0.012955446 0.017659508
-0.04777014 -0.011263833 -0.047894128 0.04284061 -0.03353728 -0.060041353 -0.003644772 0.08257934
0.016346576 0.055442624 0.06209365 -0.02525422 0.031393673 -0.0035305216 -0.045569096 -0.005225899
0.023744775 -0.04048562 0.033792544 0.022668164 0.019637657 -0.04420605 -0.027322987 6.8556255e-05
-0.06047965 0.025636889 -0.033520818 -0.027557265 0.026485233 -0.026411684 0.021608593 -0.039412282
0.016113983 0.0047017676 0.08352451 -0.008936031 -0.08244269 -0.04656607 0.07023227 -0.043170214
-0.036992185 -0.028419025 -0.059026264 -0.03752251 -0.026892021 0.05847794 -0.01993647 -0.05468784
0.045408495 0.040878154 0.046716757 0.05604558 -0.06290948 0.043322653 -0.033197377 0.038607113
-0.038466852 -0.03279876 0.07562662 -0.053038787 0.01779577 -0.045233797 -0.037018087 -0.010080056
