models/value.pth (torch, 647639 bytes, 25 tensors)

a1.weight f4 [16, 5, 3, 3]
000000 ea 83 79 3d 4f 3c 6e 3d b9 4c 84 3d 66 e8 4c bd
       0.06091682 0.058162984 0.06459946 -0.05002632
000010 fa 2b 01 3e 95 1c ea 3d 61 19 9c 3d ba ba 20 be
       0.12614432 0.11431233 0.07622028 -0.1569623
000020 9f 2a a0 bd 69 a5 8a bd 7e 32 51 bc 60 4b 48 3d
       -0.07820629 -0.06769831 -0.012768386 0.04890001
000030 b2 74 2e 3d 57 2e 13 bc e3 81 93 bd 83 90 43 be
       0.042591758 -0.008983216 -0.07202508 -0.19098096
000040 7b 5a 4a bd 7c 54 a5 bc 50 ba 52 be 37 f2 10 3d
       -0.049402695 -0.020181887 -0.20578885 0.035387244
000050 dc 3a 10 3d 1a c7 b1 3c df 2d 30 be f6 05 13 be
       0.035212383 0.021701384 -0.17204998 -0.14357743
000060 93 7d 86 be 5b d2 3f 3e 5f 07 ba bc d0 c9 4b 3e
       -0.2626768 0.18732588 -0.022708593 0.19901204
000070 26 ef 9b 3d f6 c5 95 3c 04 58 59 3e 4b e2 85 bd
       0.07613973 0.018282872 0.21224982 -0.065373026
000080 5d d9 4d 3d 31 8c 11 3e e6 42 4f bd c5 58 14 3e
       0.050256122 0.14213635 -0.05060091 0.14486988
000090 e4 2d cc bd d3 bc 0b 3d 13 c9 bb bd 8c 6f 03 bd
       -0.099696904 0.034115624 -0.09169211 -0.0320888
0000a0 6b a9 d9 3d cc e2 f8 3d cc 52 fa 3d 3d 71 51 bd
       0.10628017 0.12152633 0.122228235 -0.051133383
0000b0 5b ac fd bd ca b2 0d be e4 e0 65 3c d0 d1 1f bd
       -0.1238639 -0.13837734 0.014030669 -0.039018452
0000c0 71 b0 02 be c4 80 46 3d 83 8f b5 3d e8 25 c8 3d
       -0.1276262 0.048462644 0.08865263 0.09772855
0000d0 25 1d 94 3d 6e a7 3d bc aa c7 fc 3d b3 10 02 be
       0.072321214 -0.011575563 0.123427704 -0.12701683
0000e0 fe ef 13 be 79 3b 1f 3e 39 fa 54 bd 36 89 e0 bc
       -0.14447019 0.15550031 -0.051996443 -0.027409177
0000f0 17 0e de 3d a4 73 9f 3c 08 f3 2b bd e1 91 a6 3d
       0.10842531 0.019464321 -0.04197982 0.08133293
000100 7c 77 2a 3e 6e 22 43 3d 98 a5 59 be 5d 39 df bd
       0.16647142 0.047640257 -0.21254575 -0.10899613
000110 c3 99 7d 3d 63 2f fc 3b cd 0d 15 3e 5e 20 83 3d
       0.061914217 0.0076960786 0.14556046 0.06402658
000120 2e f9 d1 3c 51 29 8c 3c a8 40 91 bd 2e a4 3f 3e
       0.025631513 0.017109545 -0.0709241 0.18714973
000130 b9 9a 2b be e1 c0 fb bd 52 3c 9b 3d 30 8c 3d 3e
       -0.16758241 -0.12292648 0.075798646 0.18510509
000140 37 a9 c0 bc d6 7a c6 3c 6f 2f 0e be 04 c0 ef 3c
       -0.023518188 0.024228495 -0.13885282 0.029266365
000150 ad 6f 63 3d 73 df af 3d f1 4b 84 3c 49 be 1e bd
       0.055526424 0.085875414 0.016149493 -0.03875569
000160 97 4c 1a bd 74 a7 83 3d 31 8e dd 3d ed d1 ef bc
       -0.037670698 0.064284235 0.108181365 -0.029274905
000170 27 a7 52 3c 56 a4 06 bd 45 92 1f be 57 66 d9 bd
       0.012857235 -0.032871567 -0.15583141 -0.10615223
000180 60 09 61 bc 1f bd c4 bc ec 21 09 be cf 47 0a 3e
       -0.013735145 -0.024015961 -0.13391846 0.13503955
000190 dd 7a 3f 3e a5 b3 3f bd 53 6e 8c bd ca 9e 52 3d
       0.18699212 -0.04680218 -0.0685698 0.051420964
0001a0 be bf 91 3e 10 04 d0 3b c4 0c 17 3e 4e 45 b4 bd
       0.284666 0.0063481405 0.14750963 -0.08802281
0001b0 d8 25 8f 3d b0 50 09 3d 08 e9 87 3c c5 5b 6b bd
       0.0698964 0.033524215 0.01659061 -0.057460565
0001c0 20 16 31 bd c8 75 34 be f9 3b af bd aa 8c 23 3e
       -0.04323399 -0.17623055 -0.08556361 0.15971628
0001d0 67 51 90 3d f0 d3 82 bd 0e 9a 24 bd b0 c7 6c 3e
       0.07046776 -0.0638808 -0.04018598 0.2312305
0001e0 50 83 c9 bd eb c9 4a 3c 9c 19 aa 3d e4 3d 06 3e
       -0.09839499 0.012377243 0.08305666 0.13109547
0001f0 af d0 cf 3d 75 a8 2c be 2c 35 e4 bb e6 1f 09 3d
       0.10147225 -0.16861136 -0.0069643464 0.033477686
000200 c7 0c 3e bd 97 b8 d5 3b cb 09 d6 bd b0 37 88 bc
       -0.046398904 0.006522249 -0.104510866 -0.016628116
000210 ea 62 bc 3d 8b 3f 47 bc c1 97 92 3d 2b 7e e7 bd
       0.09198554 -0.012161146 0.07157851 -0.113033615
000220 9e b0 22 3c 9b f9 76 3b ee 4f 0b be 24 21 18 3e
       0.009929804 0.0037685398 -0.1360471 0.14856392
000230 eb 28 37 bd 76 a6 6f bd 1c 93 04 be 9c 63 00 3e
       -0.044716757 -0.05850836 -0.12946743 0.12537998
000240 5e a9 05 3e 55 69 1d bd 4d da ba bd 1c f0 1f bd
       0.1305289 -0.03843053 -0.09123669 -0.039047346
000250 6c 0c 44 3e f7 67 b2 bd cf 1f d2 bd 96 51 13 3e
       0.19145364 -0.08711236 -0.10259973 0.14386591
000260 2d 78 d9 ba e6 76 0c 3e 19 1e 3e 3e b9 25 7e be
       -0.0016591601 0.13717231 0.18566169 -0.24819078
000270 2f 5c f6 3c 8a 68 fc 3c e3 09 2f be b6 db b7 3d
       0.030073253 0.030811567 -0.17093615 0.089774534
000280 bb cd b8 3d bc 31 29 be 4c 23 f9 3d 12 46 e4 3d
       0.09023615 -0.16522878 0.121649355 0.11146177
000290 8c cb 57 3e 2c 5c 39 3d f0 1a fc bc 72 e9 ea bd
       0.2107374 0.045253918 -0.030774564 -0.114703074
0002a0 15 c1 6b bc 0c b2 3f bd 2c 89 ff bc 04 b5 26 bd
       -0.014389296 -0.046800658 -0.031193338 -0.040699974
0002b0 49 1e 6c 3d d5 1e 41 3d e1 2a f7 bd 63 f2 c2 bc
       0.05764607 0.047148544 -0.120687254 -0.02379722
0002c0 73 1e f8 3d 72 c1 d9 bd a7 39 04 3e c7 b2 4f bd
       0.12115183 -0.106326 0.12912618 -0.050707605
0002d0 0c d2 22 3d ed a9 42 3e 9b ad 33 bd e5 9f 2f 3e
       0.039751098 0.19010134 -0.043866735 0.17150839
0002e0 9a 5d 23 bd f2 cb 36 bd 60 93 37 be 90 61 f7 3d
       -0.039884187 -0.04462809 -0.17927313 0.120791554
0002f0 57 9f 83 3d 98 d8 92 bd 31 81 b1 bd 2b 63 bd 3d
       0.06426876 -0.07170218 -0.086672194 0.092474304
000300 54 d5 12 be 47 b1 22 bd ea 37 44 bd d6 e4 7a 3d
       -0.1433919 -0.039719846 -0.047904886 0.06125339
000310 82 c0 db bd 34 28 bb bd 8d 91 5d bd 9b 9a 72 3d
       -0.10730077 -0.091385275 -0.054093886 0.059229475
000320 df 1e cb bd 5d dc d2 3d 87 a7 fb 3a 49 cc 2d bd
       -0.099179976 0.10295937 0.0019199707 -0.04243115
000330 38 54 0a bd db cd 32 bd a1 69 9f bd 9d 94 e5 3d
       -0.033771724 -0.04365335 -0.07783819 0.11209986
000340 20 c7 ac 3d 26 60 6f bc 59 3e 40 3e 23 f2 dd 3d
       0.084364176 -0.014610326 0.18773784 0.108371995
000350 ab 09 7a be 74 a5 3f be df 88 b0 bd cb bb 96 3d
       -0.2441775 -0.18715459 -0.08619856 0.073600374
000360 aa b2 be 3b fe ae 33 3d df 3c a8 3d f3 42 74 ba
       0.0058196383 0.043868057 0.08214735 -0.00093178375
000370 30 b3 3b bc f1 f9 f3 bd 61 93 bc bd be 01 c1 3d
       -0.011456296 -0.11912907 -0.09207798 0.094241604
000380 a4 df b5 bc be 15 fd 3d 1b a2 a1 3d 29 91 c5 bd
       -0.022201367 0.123576626 0.07892247 -0.09646828
000390 39 17 de bc 9a f2 5e bc 7c 80 a9 bd 95 fc 8f 3d
       -0.027110683 -0.013607645 -0.082764596 0.07030598
0003a0 e9 cd a5 bd 8c f9 12 bd 7d 39 0c 3e f3 c7 26 3e
       -0.08095915 -0.035882518 0.13693805 0.16287212
0003b0 11 6d 08 3e a8 fd 2e be 36 5b 30 3e ef dc a0 3d
       0.13322856 -0.1708895 0.17222294 0.0785464
0003c0 ee 71 f8 3d 16 f5 dc bc b4 d7 e0 bd a1 19 e7 bc
       0.12131105 -0.026972335 -0.10978642 -0.028210463
0003d0 64 19 bf bd a0 32 e3 3d a9 73 25 3e a9 12 f7 bc
       -0.09331015 0.1109364 0.16157402 -0.030160265
0003e0 7d c6 04 be dc f0 9e 3d 60 81 a2 3d 96 7b 3a 3e
       -0.12966342 0.07760784 0.079348326 0.18211207
0003f0 b8 ab 5f bd 0f 34 7d bd fe d6 73 bd df f9 3f be
       -0.054607123 -0.061817225 -0.059531204 -0.18747662

a1.bias f4 [16]
000000 84 13 1d 3d 7f d6 ad 3d 41 d7 a9 bc 69 9c b6 bd
       0.03834869 0.084881775 -0.020732524 -0.089165516
000010 81 31 03 be d7 b0 0d 3d 59 72 4d ba dd da 95 bc
       -0.12811853 0.034592476 -0.00078371685 -0.018292839
000020 51 84 ad bc 25 61 15 3d 9a be 5f 3d d2 e3 11 bb
       -0.021181257 0.036469597 0.05462513 -0.0022261036
000030 7b 3a 9a bd e5 22 fd 3d 07 2d 08 bd ee b8 d6 3d
       -0.075306855 0.12360171 -0.033246066 0.10484491

a2.weight f4 [16, 16, 3, 3]
000000 5a 9d d6 3c 7b 4c 28 ba 86 73 81 bd 6b 96 a4 3d
       0.026198078 -0.0006420088 -0.063208625 0.080365025
000010 bf 89 17 bd 72 50 a3 bb 85 d2 36 3d 79 ef f0 bd
       -0.0369966 -0.004983955 0.04463436 -0.11764426
000020 2d 08 98 3d 44 d7 3c bd a9 83 6f 3d de 41 58 3d
       0.074234344 -0.04610373 0.05847517 0.05279719
000030 b3 c2 82 bd 6b 57 8b bc f4 45 82 3d f9 e0 0d 3d
       -0.06384792 -0.017009458 0.06360999 0.03463838
000040 cf 60 03 bd f3 6e b7 bc 92 48 d4 bd 7a ef 70 bd
       -0.032074746 -0.022391772 -0.10365404 -0.058822133
000050 66 c9 99 bd 68 eb b2 3c 0e 63 f6 bd 78 d5 33 be
       -0.07509117 0.021840766 -0.12030612 -0.175619
000060 4e 4f 94 3c bc 1f f0 bc 21 e9 29 bd 16 94 37 be
       0.018104222 -0.029312007 -0.041482095 -0.17927584
000070 ff 29 a5 bb 78 4e 9c 3d 92 cd e2 3c 87 16 8f 3d
       -0.0050404067 0.07632154 0.027685914 0.069867186
000080 07 f4 8e bd 91 9d 21 3d b7 c7 01 be 81 8d 86 3c
       -0.06980138 0.039456908 -0.12673841 0.016424896
000090 f0 c5 b6 3b b9 e4 d0 3d eb fa 0b 3d d8 30 a2 3d
       0.005577795 0.101998754 0.03417484 0.079194725
0000a0 88 b7 82 bd fe bc e1 3c 20 75 1f be 8d 5c 4f bd
       -0.06382662 0.027555939 -0.15572023 -0.050625373
0000b0 8d 75 19 be 2c f0 f1 bc 66 c6 5e bd 09 7a b5 bd
       -0.14986248 -0.029533468 -0.054388426 -0.08861167
0000c0 a2 d6 97 3b 05 58 37 3c a0 8e 0a be 19 b7 71 3d
       0.0046337405 0.011190419 -0.1353097 0.059012506
0000d0 0a 58 7f 3d a0 ba 6f 3d 96 8f 79 39 e3 10 9f 3c
       0.06233982 0.05852759 0.0002379998 0.019417232
0000e0 74 2b bf bc ea d3 db bb 18 0c 49 3d 04 5a 91 3d
       -0.02333615 -0.0067086117 0.0490838 0.07097247
0000f0 52 0a 4a bd e7 fa b4 3d 13 71 7d bd 4e da ef 3c
       -0.04932625 0.08836918 -0.061875414 0.0292789
000100 92 9c 40 bc d0 39 c3 bd 02 9e 91 3c bd 43 36 bd
       -0.011756079 -0.09532511 0.01777554 -0.044498194
000110 95 a5 c8 bd 26 ac 7d 3d b6 5a 54 3d 96 51 31 bd
       -0.09797207 0.06193175 0.05184432 -0.043290697
000120 b0 e9 8d bd 61 dd b1 3d e4 e8 d9 b9 0f ce d3 bb
       -0.06929338 0.08684803 -0.00041562982 -0.006463773
000130 0c 81 d6 bd bf 41 cd bc 24 e5 75 3d 04 17 99 3d
       -0.104738325 -0.025055764 0.06003298 0.07475093
000140 fc f0 2b bd 4f c5 17 be b4 f8 8e 3d 0b 50 7c bd
       -0.041977867 -0.14821361 0.0698103 -0.061599772
000150 dc 04 62 bd 63 56 b7 3b e1 47 60 be cf 3d 92 3d
       -0.055180416 0.005595015 -0.2190242 0.07140695
000160 2f 35 3f bd 6a b5 b2 3d 87 06 ca bd 41 99 f6 bd
       -0.04668158 0.08726008 -0.09864526 -0.120409496
000170 ca e4 b2 3d 65 4d 8e 3c 46 10 e2 3d b4 a4 6d bd
       0.08735044 0.017370889 0.1103826 -0.0580184
000180 f1 5f c1 bc 76 fd d6 3c a1 da 3a bd d9 85 fb bc
       -0.023605319 0.026243906 -0.045618657 -0.030703472
000190 ee 15 8c bc 19 2c 74 3d 5b a6 a4 3d d1 5c f3 bd
       -0.0171003 0.059612367 0.08039542 -0.11882938
0001a0 20 db bd bc 23 5a 46 bc 2d 9f a9 bd 1d 1d d4 3c
       -0.023175776 -0.012106451 -0.082823135 0.025892789
0001b0 b8 41 99 bd fb f1 db 3d d0 10 57 bd 89 8f 87 bd
       -0.07483238 0.107395135 -0.052506268 -0.06619174
0001c0 41 ab a6 bd 0a 80 39 be 12 5e f8 3d f4 48 1c 3e
       -0.08138133 -0.1811525 0.121273175 0.15262204
0001d0 d1 21 c2 bd d4 e2 47 3d da cc 64 bd 08 69 ec 3d
       -0.09479106 0.048800305 -0.055859424 0.115434706
0001e0 c9 c9 c3 bb 28 05 cb bd 84 84 28 3d 98 d6 0e 3d
       -0.0059749824 -0.09913093 0.041142 0.03487262
0001f0 72 5f 6e 3d b8 f3 89 3d 12 40 3e bc ad 1f 34 3d
       0.058196492 0.06735939 -0.011611955 0.04397552
000200 a2 52 93 bd a3 a9 2e 3d ea 3a 90 bd 3f 4d 93 bc
       -0.07193495 0.042642247 -0.07042487 -0.01798117
000210 d9 c9 32 3c f1 36 c5 3b c9 87 ef 3d c5 4f 21 bd
       0.010912382 0.0060185124 0.11695821 -0.039382715
000220 10 5e de ba 23 f9 1f bd f4 af ff bc d9 15 b9 bc
       -0.0016965289 -0.039055955 -0.03121183 -0.022593426
000230 fd 66 7f 3d 86 f8 11 bd 67 b7 19 3d dd 53 6b 3d
       0.062354077 -0.0356374 0.03752842 0.057453025
000240 1f 39 1a 3c 64 80 c2 3d 87 42 ba bd b6 e8 43 bd
       0.009413033 0.09497145 -0.0909472 -0.047829352
000250 2a 14 fd 3c 5c d0 bb bd 51 58 9b 3c fb 85 a5 bd
       0.030893404 -0.09170601 0.018963011 -0.08082195
000260 9f 00 37 3d 81 0f 08 bd d9 08 85 3d f2 8f b2 3b
       0.044678327 -0.03321791 0.06495828 0.0054492885
000270 05 38 2c 3c 23 86 ea 3c b8 91 08 bd fc 2d 4d bd
       0.010511403 0.028628414 -0.033342093 -0.050092682
000280 89 9b 28 bd 9f f7 8f bd 51 86 14 3e 89 08 b1 bd
       -0.041163955 -0.07029652 0.14504363 -0.08644206
000290 96 00 c0 bd 56 36 91 3d 57 46 13 bc f9 d6 01 bd
       -0.09375112 0.07090442 -0.008988938 -0.031699155
0002a0 bd c4 73 bc 3d 12 f1 3d 36 66 d5 bd 6d dd 4d bd
       -0.014878449 0.11771057 -0.10419886 -0.050259996
0002b0 dd e7 a4 3c a9 f6 a7 3d c6 ab 5b bd 8a b1 99 3d
       0.020130092 0.082013436 -0.053630613 0.07504566
0002c0 a8 d6 f3 bd cd a7 2b 3c ba f9 7e bd 91 3e 5e 3d
       -0.11906177 0.010477019 -0.062249877 0.054258887
0002d0 b3 ca 0e be 41 67 a4 3b e3 93 aa bd 5d cf b2 bc
       -0.13944511 0.0050171916 -0.083289884 -0.021827394
0002e0 f5 f3 43 bd 3e de 95 bd 87 ba 62 3d 78 ae ac 3d
       -0.047840077 -0.0731778 0.055353668 0.08431715
0002f0 7e c6 1c 3c 84 65 95 3c 37 cf eb 3d a5 f5 d5 3b
       0.009568809 0.018236883 0.115141325 0.0065295273
000300 2e 85 b1 bd 8e fb fc bd 65 d3 95 3d fd 98 48 3c
       -0.0866798 -0.12352668 0.07315711 0.0122435065
000310 e4 cd cc 3c 39 19 a6 bd a0 e1 d2 bd a4 e7 f5 3d
       0.02500052 -0.081102796 -0.10296941 0.120070726
000320 c2 76 93 bd 31 99 70 3d d8 58 bf bc 47 cc 39 bd
       -0.07200386 0.058739845 -0.023357794 -0.04536083
000330 22 97 57 bb b2 3c 9e 3b 2c f1 9a bd d7 ab 95 3d
       -0.0032896479 0.004829013 -0.07565531 0.073081665
000340 25 65 b0 bd fe f6 36 3d a4 6e 14 3e 41 79 c3 bc
       -0.08613042 0.044669144 0.14495331 -0.02386153
000350 f7 30 13 3e 7e fb db bc 1a 41 23 bd 2e f7 36 3d
       0.14374147 -0.02685332 -0.039857008 0.044669323
000360 95 50 9d 3d ff bc ae 3d ef 57 4f bc 76 ef 74 bd
       0.076813854 0.08532142 -0.012655242 -0.05979868
000370 91 5c 05 3c 8e 30 f8 3b ca 83 0b 3c 7a 97 ae bb
       0.008139745 0.0075741475 0.008515308 -0.005328116
000380 b2 95 20 bd 05 7c 3c 3c 57 9e d7 bc 5b a2 bc 3d
       -0.03920526 0.011504178 -0.02632062 0.09210654
000390 d9 84 57 bd a5 c9 2a 3d db eb d0 3b 02 33 d5 3c
       -0.052616928 0.04169621 0.0063757724 0.026025299
0003a0 d0 18 01 3c 13 e6 6e 3c e6 b7 90 bd 40 86 9d bc
       0.007879451 0.014581221 -0.07066326 -0.019229054
0003b0 10 20 44 3d de 4b 90 3c bf 95 31 3b 49 13 19 3b
       0.04788214 0.017614301 0.0027097312 0.0023357442
0003c0 4f 07 52 3d 54 de 84 3d 6a b0 03 bd aa 0f 70 be
       0.0512765 0.06487718 -0.032150663 -0.23443475
0003d0 2c a8 88 bd e7 5b 3a 3d c6 03 a1 3c b8 78 f1 bd
       -0.06672701 0.0454978 0.01965512 -0.117906034
0003e0 1a a5 8b 3d 18 62 cc 3c b1 d8 15 3d 68 69 80 bc
       0.068186 0.024949118 0.036583606 -0.015675262
0003f0 6e d7 67 bd 34 42 ab 3d be 9d a6 bb e9 4f 54 bd
       -0.056601934 0.083622366 -0.0050847223 -0.05183402

a2.bias f4 [16]
000000 58 fc ee bc 9c a4 21 bd 69 9b e4 3c f1 29 b1 bd
       -0.029173061 -0.039463624 0.027906137 -0.08650578
000010 d6 52 6a 3c f2 74 3e bd 55 71 52 bc 63 f9 af 3c
       0.014301976 -0.046498246 -0.012844403 0.021481222
000020 8e 21 ef bc 30 41 97 3a 50 ad 01 3d 55 ad a5 bb
       -0.029190805 0.0011539813 0.031659424 -0.005056063
000030 64 ca 95 bd e9 dd 0d bc 88 9b 5c 3c e8 9f 6d 3d
       -0.073139936 -0.008658865 0.013464816 0.058013827

a3.weight f4 [32, 16, 3, 3]
000000 ed 56 24 3d d8 64 85 bc fe 14 7b bd 64 00 ef 3c
       0.04012196 -0.016283438 -0.061299317 0.029174991
000010 92 1b 57 bc f7 49 9f 3b 46 3f 0f 3c 08 ba 01 3c
       -0.013129132 0.004861112 0.008743113 0.007917888
000020 84 a2 9a bc ef ae f5 3d d7 0b 26 3d 56 5c e0 3a
       -0.018876322 0.119962566 0.040538635 0.0017117362
000030 ba 96 b8 3c 6b 96 11 ba 50 27 2f 3d 58 89 fd 3b
       0.02253281 -0.0005553725 0.0427621 0.00773732
000040 ec e0 97 3b 5f 50 8d 3d 46 f2 00 3e f4 2b 84 bc
       0.004634967 0.06900095 0.1259242 -0.01613424
000050 f1 43 02 bd 2c 34 e6 3c 90 c5 6b bd 55 f6 c8 bd
       -0.031803075 0.02810105 -0.057561457 -0.09812609
000060 fd c6 70 bd b6 fa c1 3d 47 a3 fe bd fa 63 5a bd
       -0.05878352 0.094716474 -0.124334864 -0.053318
000070 fa 63 2d bc e0 ac 8a bd f8 18 41 bd df 4f b3 bc
       -0.010582918 -0.067712545 -0.047142953 -0.021888671
000080 a0 63 ee bb bf e2 91 3c fa 2b 86 bd 5f 26 20 3d
       -0.00727506 0.017808316 -0.065513566 0.039099094
000090 e0 8f 56 bc af 5a de bd 38 52 f9 bd 8f 35 b4 bc
       -0.013095826 -0.1085714 -0.12173885 -0.021998195
0000a0 df 37 83 bc 16 2d 2d be 6a 91 d8 ba b9 7a 91 3d
       -0.016017852 -0.1691173 -0.0016522829 0.071034856
0000b0 c8 60 38 bd a1 73 2e 3e 49 c8 2b 3c 7d 01 d4 3d
       -0.045014173 0.17036296 0.010484763 0.10351846
0000c0 40 b9 b6 3d 5e df 22 3d dd 16 56 bd 21 73 19 be
       0.089220524 0.0397638 -0.052267898 -0.14985324
0000d0 38 f9 eb bc bc ab 6c 3d 21 33 d0 bd 8d b1 cb bc
       -0.02880536 0.057780966 -0.10166002 -0.024864936
0000e0 20 3e 97 bd 0c 2a f5 3d 4e d9 4b bb 0c 90 69 ba
       -0.07384896 0.119709104 -0.0031104865 -0.0008909709
0000f0 64 8d 02 bd b6 aa 78 3d 13 74 d5 3d 45 ab f6 3c
       -0.03187312 0.060709678 0.1042253 0.030110965
000100 71 4b 6f bd 77 2c 07 bd 50 c7 a5 bc fa 8e 3d bd
       -0.058421556 -0.03300139 -0.020236641 -0.04627893
000110 2b 8f 94 3d 7a 82 10 bd a9 c7 33 bd 3d 0e b4 3d
       0.072538696 -0.035280682 -0.043891583 0.08791778
000120 29 02 48 bd 46 81 4f bd 0a 4b ad 3d 8c de 31 bc
       -0.048830185 -0.050660394 0.08461578 -0.010856282
000130 a2 bb bc bd da 82 15 3e 8a 4f 10 be 28 75 92 bc
       -0.092154756 0.14600697 -0.14092842 -0.01787813
000140 b0 56 64 bc 09 91 00 be 93 92 af 3d 44 b2 bc 3d
       -0.013936684 -0.12555327 0.08572879 0.09213689
000150 a2 00 fa bd 5d 54 cf bb 89 7a 50 bd 26 0c d4 3d
       -0.12207152 -0.0063271956 -0.05089811 0.1035388
000160 22 7a 83 3d 49 0e 84 bd 61 e7 27 3d 05 ff b0 bc
       0.06419779 -0.06448037 0.040992144 -0.021605978
000170 3d 13 ad bc 31 5b 77 3c f5 bd 2f 3d ac c1 9b 3d
       -0.021127338 0.015097425 0.042905767 0.07605299
000180 b8 fa 65 bc 3f 53 4c bc bf 52 1b 3e 34 77 e1 bd
       -0.014036827 -0.012471019 0.15168284 -0.11009064
000190 f5 05 74 bd 77 5e 8f bd 8c be 9b bd 66 58 b0 3d
       -0.059575994 -0.070004396 -0.07604703 0.08610611
0001a0 f1 cb 1f bd 52 2e b7 bc 89 9a a0 bd 98 d7 82 3d
       -0.039012853 -0.022360954 -0.07841975 0.063887775
0001b0 87 a9 bd bd f1 55 26 bd 44 0a 05 3d fe 9d 3b 3e
       -0.092608504 -0.040609304 0.032480493 0.18321988
0001c0 03 1a 91 3d 3b c9 c3 bc e4 18 d7 3d bc e7 44 bc
       0.070850395 -0.023899665 0.105027944 -0.01201814
0001d0 36 15 06 3e d6 8f e2 bc 43 33 d1 bc 9f fb b6 bd
       0.13094029 -0.027656477 -0.025537139 -0.08934712
0001e0 ba 34 25 3e 40 f0 a7 3d 13 f5 b1 3d f4 1c f0 bc
       0.16133395 0.08200121 0.08689322 -0.02931068
0001f0 04 6b 8c 3d 96 be 8b 3c 2b 32 8b 3d de d6 b5 bd
       0.06856349 0.017058652 0.06796678 -0.08878873
000200 16 59 d0 3c 2a f9 bf bd 86 fb 02 bd dc 61 16 be
       0.025433104 -0.09373696 -0.031978153 -0.14685768
000210 5b ea bc 3d 70 f5 7b bc a3 84 90 3c 56 68 ab bd
       0.09224387 -0.015378341 0.017641371 -0.0836951
000220 d1 77 a4 bb d8 73 94 3c 18 15 76 bc c7 d6 92 bc
       -0.005019166 0.018121645 -0.015019678 -0.01792468
000230 8e f8 e4 3d ff 36 10 3d d3 6d a4 3d b1 8e 27 bd
       0.111802205 0.0352087 0.0802876 -0.040907566
000240 6d 9d 73 3d ec af 2b be 37 8b 89 3d de 21 9f 3d
       0.059476305 -0.16766328 0.06716006 0.077701315
000250 86 a6 8d 3d 17 d8 a1 3d 01 cd 8e 3d ac 29 7d bd
       0.069165275 0.07902544 0.06972695 -0.06180732
000260 56 8d 8d 3d 7c 38 41 3d 02 a3 8c 3d 1c 4a 07 bd
       0.06911723 0.04717301 0.06867029 -0.03302966
000270 c2 99 ab 3b f5 45 f0 3d 3a 63 9f bd 63 26 17 3e
       0.005236835 0.11732093 -0.07782598 0.14760737
000280 fd c5 ba bd 3e 02 e5 3d 27 01 c0 3b 28 9c 31 3d
       -0.091197945 0.11182068 0.0058595124 0.043361813
000290 08 ee 26 3e 82 a3 4e be fc 2a fb bb c3 00 11 bd
       0.16301739 -0.20179561 -0.0076650362 -0.035401117
0002a0 90 ff 7c bc 24 33 1d 3e 7c 9a c3 3d 0b 4b c2 bc
       -0.01544179 0.1535154 0.0955095 -0.023717424
0002b0 66 7c 85 bd c5 7f 80 3d e4 9d 09 3d ac 3e c2 3c
       -0.06517868 0.0627437 0.03359784 0.023711525
0002c0 c2 25 9a bd db 98 68 3d 15 b8 d9 bc 10 aa 2e 3b
       -0.07526733 0.0567864 -0.026577035 0.0026651658
0002d0 c9 ff c6 bb 56 11 cb bc e1 9d 88 3d c7 19 a5 3c
       -0.0060729724 -0.02478854 0.06670738 0.020153893
0002e0 69 cb 57 3d 6f bc 82 3d 34 1f ae 3d 54 83 f6 3c
       0.05268422 0.06383597 0.08502045 0.030091919
0002f0 c7 d8 a0 bd 61 b5 64 bd 64 0a b0 3c e5 23 93 3d
       -0.07853847 -0.05583704 0.02148933 0.07184581
000300 e4 41 ea bd cc 42 10 bd bf 81 12 ba 02 60 a7 bc
       -0.11438349 -0.035219952 -0.00055887917 -0.020431522
000310 6f 9d 2d bd 9d 5e dc 3d 66 50 c0 3d 3b a6 11 3d
       -0.04238647 0.107602336 0.09390335 0.03555892
000320 10 bd 43 bc c5 c1 9a 3c 30 e5 29 bd 0b de 86 bc
       -0.0119469315 0.018891225 -0.041478336 -0.0164633
000330 84 77 34 3d 42 1e fe bc 7b 26 4b 3c 64 bf 1e 3d
       0.04405929 -0.031020287 0.012399311 0.038756743
000340 45 b9 11 3e ef dc 2a bd cf 51 a2 bc c1 86 9c bd
       0.14230831 -0.041714605 -0.0198144 -0.0764289
000350 49 87 49 bd 91 18 f0 3c be f0 6f 3d 9b a0 04 be
       -0.049201284 0.02930859 0.0585792 -0.12951891
000360 6e 0c b6 3c 14 dc 67 3d bc bf 9e 3d 09 a1 74 bd
       0.022222724 0.056606367 0.07751414 -0.059723888
000370 b1 40 11 bd e1 b6 f1 3c d9 4a 51 bd 67 69 82 3d
       -0.035462085 0.029506149 -0.05109677 0.0636776
000380 49 de f8 3c 10 d9 ab bc 28 3f d8 3d 58 47 d2 3d
       0.030379431 -0.020977527 0.10558921 0.10267514
000390 49 e5 6c 3c de 38 f7 3d bf 66 1e 3d cb 26 df 3c
       0.014458963 0.120713934 0.038672205 0.027240178
0003a0 f1 68 51 bd e9 8f 6e 3d 12 fd 8b 3d b6 15 07 3c
       -0.05112547 0.058242712 0.06835379 0.008244922
0003b0 af d3 4e bc e1 40 73 bd 88 49 e0 3d df 8f bc bd
       -0.0126237115 -0.059388045 0.10951525 -0.09207129
0003c0 cb e9 54 bd 32 b0 d5 3d 9b f4 da 3c d0 2b db 3d
       -0.051980775 0.10433997 0.026727965 0.10701716
0003d0 fd 7f c3 bd 10 7b 70 bc 62 d5 51 3d ef b8 13 3e
       -0.09545896 -0.014677778 0.05122889 0.14426015
0003e0 ff 3c 55 bd c6 d3 41 bd db 49 d9 bd 50 27 5f bd
       -0.052060124 -0.047321104 -0.1060979 -0.05448085
0003f0 2e 44 e4 bc ee 88 8f 3d 42 63 96 3d 54 e9 bd bd
       -0.027864542 0.07008539 0.07343151 -0.092730194

a3.bias f4 [32]
000000 b3 83 1b bd 72 b4 f7 bc 4f be 8e bd 0a 13 54 3d
       -0.037967395 -0.03023741 -0.06969892 0.05177597
000010 d1 f1 fe bc 36 0f a5 3c 10 54 1b 3d dc 81 00 3d
       -0.031121166 0.020148855 0.037921965 0.031373844
000020 2f cf 3f 3d 08 c6 96 bc 3f ce 46 3d 0f 30 7e 3d
       0.046828445 -0.018404976 0.048536535 0.06205755
000030 53 9b 1b 3d 7c 77 48 3d fa 49 74 3d 6c 5f 8d bd
       0.037989926 0.048942074 0.059640862 -0.06902966
000040 ed 8a 35 3d 41 15 91 bc c1 56 3a bd cd 45 4d 3c
       0.044321943 -0.01771033 -0.04549289 0.012528849
000050 e5 0d 5c 3d 32 6e d8 bb bf 9c 0c 3d 20 5b b7 bc
       0.05372419 -0.006604933 0.034329172 -0.022382319
000060 3b 71 0b bc 77 56 a2 3c f1 98 45 3d fc 9a 80 3d
       -0.008510883 0.01981662 0.04824156 0.06279561
000070 5e 05 20 bd e7 c2 ec 3c f7 38 2f bd 85 44 3e bc
       -0.03906762 0.02890153 -0.042778935 -0.011613016

b1.weight f4 [32, 32, 3, 3]
000000 4d 57 63 bd 33 ce 6a 3d cb 96 13 bd e1 b1 31 bd
       -0.05550318 0.057325553 -0.03603248 -0.04338253
000010 e4 82 b9 3c a1 18 7d bc 7b 69 c6 bb c1 34 2c bc
       0.022645421 -0.0154477665 -0.0060550547 -0.010510624
000020 55 d0 85 bd f0 90 a9 bc fb 10 40 bd 2e 33 76 39
       -0.06533877 -0.020698994 -0.046891194 0.00023479454
000030 5e 7e a6 3c 00 3f 86 bd 29 ed 1d 3d 2c 50 09 bc
       0.020323928 -0.06554985 0.03855625 -0.008380931
000040 f5 5f ce 3c c3 ea 72 bd 05 44 72 3d 20 4e 43 3d
       0.02519224 -0.059305917 0.0591469 0.047681928
000050 92 17 06 3d af 20 09 bd 60 4e 1e bd 0f 9b 4d bd
       0.032737322 -0.033478435 -0.038648963 -0.050196704
000060 3a 45 c4 bc d2 03 76 3b 0d a3 63 bd ad e8 4a bd
       -0.023958791 0.0037538898 -0.05557542 -0.049538303
000070 64 57 26 3d 77 c2 73 3c 8c 59 15 3b 32 64 40 3d
       0.040610686 0.014877907 0.002278897 0.046970554
000080 78 1c 71 bd b2 28 2a 3d 70 b3 61 bc e1 a2 31 3d
       -0.05886504 0.041542716 -0.013775691 0.043368224
000090 1e 09 07 bd 8f 5c 15 3d 06 f2 82 3c c3 8a 0b 3d
       -0.03296768 0.036465224 0.015984546 0.03406788
0000a0 05 f0 61 3d 52 78 ad 3c bc 7e 1f 3c 16 d5 3a bd
       0.05516054 0.021175537 0.009734806 -0.04561337
0000b0 a1 08 38 3d 07 15 2f bd 39 cd 29 3b 1c 05 1b 3d
       0.044930104 -0.042744663 0.0025909676 0.03784667
0000c0 2d aa da 3c eb 87 1d bd 33 a6 ae 3c 52 02 56 3d
       0.026692474 -0.0384597 0.021319484 0.052248307
0000d0 bb cb fa 3c ad 6b 63 3c 72 88 3f bd 23 9d 35 3d
       0.030614724 0.013880652 -0.046760984 0.04433931
0000e0 bf 96 9f bc 03 fe 38 3d 31 3c 64 bd 82 c2 2a 3d
       -0.019481061 0.04516412 -0.055721465 0.041689403
0000f0 bf 58 57 3b a4 49 75 bd 00 08 97 3c 7a f7 7e bb
       0.0032859293 -0.059884682 0.018436432 -0.0038904832
000100 cc 2f 37 3d bf 74 59 bc ee 46 5b bd 69 71 62 bb
       0.044723317 -0.013272463 -0.05353444 -0.003455246
000110 51 90 39 bc bb 92 e2 bc a9 40 57 bc e0 d7 6a bd
       -0.011325912 -0.027657857 -0.013137975 -0.05733478
000120 b2 93 38 bd 69 4f 20 bc ab c6 98 3c 07 2d ae 3c
       -0.04506273 -0.009784558 0.01864942 0.021261705
000130 5a b3 9f 3c ec a3 e5 bc fa 77 e6 bc 44 47 40 3d
       0.019494701 -0.028032266 -0.028133381 0.046942964
000140 c9 94 4c bc 43 37 08 39 ed 11 d1 bb 6f d9 63 bc
       -0.012486645 0.00012990557 -0.0063803107 -0.013906821
000150 ba 43 b5 3c dc dd 13 bd 68 db c8 3c 42 8f 50 bd
       0.022127021 -0.036100253 0.024518684 -0.05091787
000160 1f b8 6b 3c 49 0b 40 bd 93 b7 60 bb 8c ea 12 bd
       0.01438716 -0.046885762 -0.0034289106 -0.035868213
000170 fc c2 bf 3b 46 e5 67 bb 0e 3b 52 bd ac 41 5b bd
       0.0058521014 -0.003538446 -0.05132585 -0.053529426
000180 85 40 36 3d 5a 24 2c bd 66 b9 19 3c bc f6 df bb
       0.044495124 -0.042026855 0.009382581 -0.006834833
000190 af 33 3d bd db 0e 3e bc 79 4e bd 3c a9 00 3d 3d
       -0.046191867 -0.0116002215 0.023108708 0.046143208
0001a0 68 45 8b bc 35 58 13 bb 4c 22 8d 3c 13 71 68 bd
       -0.017000869 -0.0022482995 0.017228268 -0.05674846
0001b0 a5 e4 3c bd ed 3c bb bc 98 b6 d1 bc 51 8c 4b 3d
       -0.04611649 -0.0228562 -0.025599763 0.049694363
0001c0 a3 db 48 bd 13 e1 d2 3b b0 70 fa bc 25 73 47 bd
       -0.049037587 0.0064355223 -0.030571312 -0.048693795
0001d0 e8 9a 8e 3b 38 23 78 3d 17 e9 82 3b d6 a6 1d 3c
       0.0043519624 0.060580462 0.0039950716 0.009622296
0001e0 3a 8f 51 3d e3 c8 83 3c 69 cc 4d 3d 4b cb 43 bc
       0.051161982 0.016087001 0.05024377 -0.011950324
0001f0 c1 b6 0c 3d ff 3f e9 3c e7 f2 55 bd 61 fd d8 bc
       0.034353975 0.028472899 -0.052233603 -0.026488008
000200 00 20 88 bd 67 99 4b bd 83 85 59 3d 49 ab fa bc
       -0.066467285 -0.049706843 0.053105842 -0.030599253
000210 2d ed f4 3b 5d 1c 23 bd 47 e0 05 ba 6a 8f 5c bd
       0.0074745626 -0.03982197 -0.00051069673 -0.053847708
000220 81 02 0a 3d 28 d5 d4 bc 38 4b dd bc 4a 79 db 3c
       0.033693794 -0.025980547 -0.027013406 0.026791234
000230 6c 9a 58 bd 12 b0 c9 bc c4 e7 34 3c 66 62 9d bc
       -0.052881643 -0.02462009 0.011041585 -0.01921196
000240 a8 ab 55 3d 96 a5 3e bd 4b a4 27 bd ba a5 0d 3d
       0.052165657 -0.046544634 -0.040928166 0.034581877
000250 47 63 22 bd 1f d0 4f 3c d7 e6 3b bd 29 c6 0b 3d
       -0.03964546 0.012683897 -0.045874443 0.034124527
000260 42 36 f2 ba b6 27 56 bd eb 5e 75 bd b4 bb 11 bd
       -0.0018479305 -0.052283965 -0.059904974 -0.0355794
000270 d4 4f 9f bc 67 49 be 3b 1f c6 fe bb 0f 80 87 3c
       -0.019447245 0.00580709 -0.0077750827 0.016540555
000280 4f d7 fe 3a e6 85 56 bd ec 0d 39 bd a1 fe 5b 3c
       0.0019442829 -0.05237379 -0.045179293 0.0134274075
000290 16 fb 81 bd da c8 11 3c 52 68 86 bd ce 4d f1 bb
       -0.06346719 0.008897984 -0.06562866 -0.0073640114
0002a0 49 82 3d bd 58 8b 24 3d 56 34 27 bd a4 f8 ba 39
       -0.046266828 0.04017195 -0.040821396 0.00035661936
0002b0 3a 34 51 3d 59 4a 41 3d 63 68 6e bd dc 51 7d 3b
       0.051075198 0.047190044 -0.05820502 0.0038653528
0002c0 00 37 80 3c 79 1a 7d bb 6c 50 51 bd 13 35 ba bb
       0.015651226 -0.0038620515 -0.051102087 -0.0056825965
0002d0 56 d1 94 3b 89 f1 26 3c b5 df cd 3c 90 e1 39 bd
       0.0045415564 0.010189422 0.025131086 -0.04538113
0002e0 05 8c a1 3c a0 3e 0f 3d 55 ba 82 3c 44 69 6d 3d
       0.019720087 0.034971833 0.01595799 0.057961717
0002f0 ab 15 07 3d f2 38 4f bd 92 4d 63 bd e5 cf 85 bd
       0.03297965 -0.050591417 -0.0554939 -0.06533793
000300 f0 7f 3d bd 35 d7 98 3c b4 b0 20 bd 08 f9 ab 3c
       -0.04626459 0.018657306 -0.039231017 0.02099277
000310 eb a3 05 3a 0a 27 05 bd 5a 55 83 bc 22 f8 27 3d
       0.0005097973 -0.032507934 -0.01603191 0.041008122
000320 cf 37 6e bc 34 c7 f0 bb a7 8c 07 bc 17 ee 23 bd
       -0.014539673 -0.0073479656 -0.00827328 -0.040021982
000330 be 83 d6 3c 9f 8a 4e bc 2b 6b c4 3c ba ea 67 3c
       0.026185866 -0.012606292 0.023976883 0.014155084
000340 49 1d 46 bc 02 70 6d 3c 7c dc c1 bc da 33 24 3d
       -0.012091943 0.014492037 -0.023664705 0.040088512
000350 6d 08 05 bd f4 fd c8 3c 20 6f 3d 3d c2 17 84 bc
       -0.03247874 0.024535157 0.046248555 -0.01612461
000360 0a ab 99 bb 7f d8 17 3d 47 84 42 bd 97 9c 45 3d
       -0.004689579 0.0370717 -0.04748943 0.04824504
000370 f2 c8 57 3c 93 96 ed bc e1 55 4a bd 01 4c 68 bd
       0.013170468 -0.029002463 -0.049398307 -0.056713108
000380 b8 c0 91 bc 6c b6 b9 3c d8 be f6 bc 7c 0c 09 3d
       -0.01779209 0.022669993 -0.030120298 0.03345917
000390 9c 8a ed 3c 52 50 da 3c f0 97 70 bc f6 8d 07 3c
       0.028996758 0.026649628 -0.014684662 0.008273592
0003a0 7d ae cf bc df a5 e3 3c cf c8 19 bd 8f 60 19 bb
       -0.025351757 0.027789054 -0.03754502 -0.00234035
0003b0 4b f4 25 bd eb 6f 5f bd 6e a5 d6 3b 98 43 90 bd
       -0.04051618 -0.054550093 0.0065504825 -0.070441425
0003c0 46 27 70 3d 25 fc 4a bd 59 2f c8 bc d7 af 9e 3c
       0.058631204 -0.04955687 -0.02443664 0.019370956
0003d0 87 38 90 3c 67 09 4b bd b0 78 9c 3c b6 17 95 bc
       0.01760508 -0.049569514 0.019100517 -0.018199783
0003e0 e7 f7 f5 bb ae eb e2 bc 90 66 50 bd 7f 0e 7d bd
       -0.007506359 -0.027700271 -0.05087906 -0.061781403
0003f0 e3 08 47 3d 6f f4 67 bd f9 03 21 bd e5 88 e5 3c
       0.04859246 -0.056629594 -0.03931043 0.028019378

b1.bias f4 [32]
000000 dc 4c 74 bd 00 c1 1b 39 8d f4 1c bd 67 7c 0b 3d
       -0.05964361 0.0001485385 -0.03831916 0.034054186
000010 fa 44 84 bd 5d e5 a5 bc df 06 8b 3c 76 16 30 bd
       -0.06458469 -0.02025097 0.01697105 -0.04299017
000020 3d b7 36 3c 65 03 63 3c 89 0d 80 bd 09 ab f8 bc
       0.011152086 0.01385579 -0.062525816 -0.030354993
000030 09 69 59 3b e7 e1 14 3c 6d 7b 13 bd b0 32 79 bd
       0.0033174178 0.009087062 -0.03600638 -0.060839355
000040 08 26 44 bd 9c 6e 18 3d b7 cd f6 3c 3b 81 24 bd
       -0.047887832 0.03721486 0.03012739 -0.040162306
000050 d1 04 83 3b 22 4d 0a 3d b1 2c 62 bd 23 94 70 bd
       0.003998377 0.033764966 -0.055218402 -0.058735024
000060 db 88 c9 bc 55 dc cc 3a b6 05 dc bc 31 ee ed bc
       -0.02460139 0.0015629629 -0.026858192 -0.029044243
000070 8e 7d 7f 3c 33 f7 fa bc 0c b7 33 3c 65 87 02 bd
       0.015593899 -0.030635452 0.010968935 -0.031867404

b2.weight f4 [32, 32, 3, 3]
000000 44 e3 01 bd 4e be 88 3c c7 95 da ba ea 9c 13 bd
       -0.031710878 0.016692307 -0.0016676717 -0.036038317
000010 07 89 21 bd 8b f8 37 3d 5e 78 de 3b 40 35 a8 3c
       -0.03943732 0.044914763 0.006789251 0.020533204
000020 84 fc 70 bd f2 4e 99 bc 5c f6 b6 3d 09 7d bd bd
       -0.058834568 -0.018714402 0.08933708 -0.09252364
000030 99 64 d1 3a b5 ec e0 bc 55 4a 9e bd 8e fe d2 bc
       0.0015975415 -0.02745662 -0.077290215 -0.025756147
000040 57 75 d4 bb 32 03 90 bd a2 88 c1 3c d6 1c d8 3c
       -0.0064837146 -0.070318595 0.023624722 0.026380938
000050 ae 45 e2 3c 88 e2 3f bc 34 c2 72 bc 26 76 ca 3c
       0.027621116 -0.011711724 -0.014816809 0.02471454
000060 30 e6 19 bc 62 a6 94 bc 9a d7 ac bc 8a 31 e0 3c
       -0.00939326 -0.018145744 -0.0210989 0.027367372
000070 f0 da ed 3c a9 19 2c bb 02 0d a3 3d 6a bd 89 bb
       0.029035062 -0.0026260412 0.079614654 -0.004203488
000080 e4 a4 f5 3c 96 7e 97 bd aa 7d 6e bc e9 f3 0d bd
       0.029985853 -0.07397191 -0.014556328 -0.03465644
000090 4e f0 18 bd c5 91 95 3c 09 70 3d 3d 18 95 28 bd
       -0.037338547 0.018257985 0.046249423 -0.041157812
0000a0 ef b1 ed 3c b2 e2 ed bc cc b0 4b bc 22 bb 93 bc
       0.02901551 -0.02903876 -0.012432288 -0.018033568
0000b0 de 9f dc 3c 8d 4b 0f 3e f8 71 5c bd 66 25 f7 3d
       0.0269317 0.13993664 -0.053819627 0.1206768
0000c0 6e 7e bc bd ef 6a 7f 3d 0e c4 9b 3c af c5 45 3e
       -0.09203802 0.06235784 0.019014385 0.19313692
0000d0 63 3c c0 bd a9 91 74 bd ec 27 6b 3d 68 67 69 bd
       -0.09386518 -0.059709225 0.05741112 -0.05698338
0000e0 07 46 2f 3c d5 44 a6 bd 67 b3 85 bd b1 db 3d bd
       0.010697848 -0.081185974 -0.06528359 -0.046352092
0000f0 53 d6 e9 3d 3c 8a f2 3d c6 2d 05 3c c0 01 91 3a
       0.11417832 0.11842772 0.008128589 0.0011063144
000100 68 94 ae bc 8c bb 27 3c ab b0 88 3c 44 de 39 3c
       -0.021311 0.010237586 0.016685804 0.011344496
000110 60 c4 93 3a 0b f0 0c bd 0e 04 05 3c 58 01 a6 3b
       0.0011273734 -0.03440861 0.0081186425 0.005066078
000120 60 14 12 bd 65 0e ac bb 18 69 4a 3b 81 fc 64 bb
       -0.035663962 -0.0052507394 0.0030885395 -0.0034940543
000130 6c 6d 59 3d 8b c1 87 bd 40 26 cb 3c 84 7f 77 bc
       0.05308287 -0.06628712 0.024798512 -0.015106086
000140 8d 49 4e bd 18 7e 73 3d 72 be 26 3c 31 f5 96 3d
       -0.050363112 0.059446424 0.010177242 0.07370985
000150 f0 a0 91 3c 1a d7 98 3c 97 36 b0 3c 1a b9 e2 bc
       0.017776936 0.018657256 0.021510405 -0.027676154
000160 c0 e6 07 3c 58 e1 07 3c cc 63 cd 3c ac cf 21 bd
       0.008294761 0.008293472 0.025072 -0.039504692
000170 94 3a 7a bd d9 8a 38 3d d6 95 d9 bb 7b c9 1b 3c
       -0.06109102 0.04505429 -0.0066401763 0.009508486
000180 18 3b c7 3c 30 92 94 3c 13 7f 23 3d 0e c4 be bd
       0.02432017 0.018136114 0.03991611 -0.09314738
000190 38 b0 4e bc 9f b5 49 3d c1 2e 9d 3d 1e 4c 83 3d
       -0.012615256 0.049245473 0.07674933 0.064110026
0001a0 e5 5d 81 3c ed d6 ec 3d b0 13 49 3d 49 ff a3 3d
       0.015791843 0.11564431 0.04909104 0.08007676
0001b0 b5 ce 26 bd 6d 41 cd 3d 1e 67 33 bd 6e 20 13 3e
       -0.040724475 0.100222446 -0.043799512 0.1436784
0001c0 90 5c 8d 3d 99 84 fc bc 16 b1 91 bd f0 97 02 bd
       0.069024205 -0.030824946 -0.071138546 -0.03188318
0001d0 8a 2f 46 ba 27 db 52 bb 64 78 cb 3d fa 85 3b bc
       -0.00075601845 -0.0032174082 0.09935072 -0.011445517
0001e0 23 46 36 3e 9a f8 d6 3d 71 b8 97 bc 38 dd 32 bd
       0.17800193 0.10496636 -0.018520566 -0.043668002
0001f0 c6 f7 1d 3d 14 14 dc 3a 4c 3b 3a bc e0 2b 51 bc
       0.038566373 0.0016790652 -0.011366677 -0.012766808
000200 0a 87 83 3c 2f b5 50 3d f1 12 4c 3d f8 9d ca bc
       0.016055603 0.05095404 0.04982275 -0.024733528
000210 ab 78 25 3d 0c 16 8f bc 73 db 19 3d 53 d8 5e 3d
       0.04039828 -0.017466567 0.0375628 0.05440552
000220 da 6b e9 3c db 25 22 3d 00 1a c1 38 3e e8 42 bd
       0.02849381 0.039586883 9.2078e-05 -0.047584765
000230 ca a1 4e bd e9 e4 34 bc b3 81 13 bd f5 2c 5e 3d
       -0.050447263 -0.011040905 -0.036012363 0.054242093
000240 91 14 9c 3c 1e db 1d bd 55 9b 03 bd c0 69 28 3d
       0.019052776 -0.038539045 -0.032130558 0.041116476
000250 73 ce 1b 3c e1 44 99 bc 73 ed eb bb 0c 74 49 3c
       0.009509671 -0.018709602 -0.007199937 0.012295734
000260 1d 74 64 3a cc fc b7 bc 5a f0 3e 3d 20 7d e4 3d
       0.0008714812 -0.02245941 0.046615936 0.11156678
000270 11 69 e2 3d b9 d7 98 bb 75 38 4e bc 26 9f 6c bd
       0.11055196 -0.004664388 -0.012586703 -0.057768963
000280 88 6c 32 bb 18 7c 76 bb 7f 27 06 3d 01 f6 4d 3d
       -0.0027225334 -0.0037610587 0.03275251 0.050283436
000290 69 11 8e 3d 0f f6 de bd cb 1e 18 bc f6 4b 98 bc
       0.069369145 -0.10886776 -0.009284685 -0.018590908
0002a0 13 0c 37 3d 1b 4e cc 3d 2a f9 2b 3c 3a 88 b9 3c
       0.04468925 0.09975835 0.010496417 0.022647966
0002b0 de bb fe 3c 50 ea 0a 3b 52 bb ee 3c 95 6c 64 38
       0.031095441 0.002119679 0.029142056 5.446056e-05
0002c0 a0 57 67 bb 30 6d 10 bd a1 24 7d 3d 6d cb 3a 3d
       -0.0035300031 -0.03526038 0.06180251 0.04560416
0002d0 77 d2 2a bd 9a 97 98 3d a8 a9 b6 3c 2e 07 32 3d
       -0.04170462 0.07450791 0.022297695 0.04346388
0002e0 eb 25 06 3e ca 3e a5 bd 4b ae 73 bd d4 0a 0b bd
       0.13100402 -0.08068617 -0.05949239 -0.033945873
0002f0 81 be 30 3d 41 f2 0b bd 73 a8 0f bd cb 83 4d bd
       0.04315043 -0.03416658 -0.035072755 -0.050174516
000300 4a 80 2f 3d d2 32 a0 3d 3c c2 a3 bc 1b 61 d3 3d
       0.042846955 0.07822193 -0.01999008 0.10321256
000310 04 b7 5d ba c5 08 6a 3b 64 0b 33 bd 46 30 82 bc
       -0.00084577524 0.0035710793 -0.043712035 -0.01589216
000320 f0 ac 5b 3b 62 48 84 3c 75 79 5a bd 0e 1a ce bc
       0.0033519827 0.016147796 -0.053338487 -0.025158908
000330 90 71 0b 3c aa bf 16 bd fe 95 de 3c e0 98 b7 bc
       0.008510962 -0.03680388 0.027171131 -0.022411764
000340 c0 b6 12 3a 68 af 83 bc 75 f8 31 3d 5a 1f 8e bc
       0.000559669 -0.016074851 0.043449838 -0.017348934
000350 28 d6 dd 3b 94 0d 82 bc 24 14 49 3c 00 b0 5a b9
       0.006769914 -0.015875615 0.012272868 -0.00020855665
000360 cb f4 4e 39 97 12 e1 3c 39 2c cf bd 70 24 37 bc
       0.00019736883 0.027474685 -0.10115857 -0.011178121
000370 bb 05 78 3d 39 e6 95 bd d3 f5 16 3d da a4 b3 bc
       0.06055234 -0.07319302 0.03685553 -0.021929193
000380 9e 68 9e bc 25 af 42 3d e1 fa 63 3d 24 49 c7 bb
       -0.019336995 0.047530312 0.05565918 -0.006081717
000390 fd f2 c8 3c 55 17 be 3d 4a 75 4b 3d cd 8a 13 3d
       0.024529928 0.09281794 0.049672402 0.036021043
0003a0 e8 21 b2 bd 76 a0 0a bc 83 90 a7 3d 55 15 7b 3d
       -0.08697873 -0.008461108 0.0818186 0.06129964
0003b0 f0 28 f2 3c 54 28 16 bd 09 fb 98 3d 15 69 b0 bd
       0.029560536 -0.036659554 0.07469756 -0.08613793
0003c0 0b a9 4d 3d 86 58 45 bd 62 73 97 bd 18 a5 6a bb
       0.05021004 -0.048180126 -0.073950544 -0.003580397
0003d0 96 60 1e bd 81 b7 1b 3e 4d 51 99 3d 73 59 a1 bd
       -0.03866633 0.1520672 0.0748621 -0.07878389
0003e0 7e 6b e1 3c df 8c 84 bd 1c 1a b9 bc 52 26 6e bd
       0.027517077 -0.064721815 -0.022595458 -0.058142014
0003f0 da 41 67 bd 7d 28 eb bc 4b 30 9f 3c 0c a8 06 bd
       -0.056459285 -0.02870583 0.019432208 -0.032875106

b2.bias f4 [32]
000000 33 00 ae bc 0a b4 78 bd b5 07 6d bd 7c bb e3 bc
       -0.02124033 -0.060718574 -0.057868678 -0.02779936
000010 0d 1b ac 3c 3a bc 01 bd 90 4a 3d bd 91 ff 68 3b
       0.021008993 -0.031673647 -0.046213686 0.003555272
000020 02 7b 8b bc 06 87 01 3c ed c4 aa bc 72 10 dc bb
       -0.017026428 0.007905727 -0.020845855 -0.0067158276
000030 63 9f 20 3d bc e0 2d 3d 14 a4 51 bd 8d fa 72 3c
       0.039214503 0.04245065 -0.051181868 0.014830244
000040 6d 22 81 bd 7b a5 82 3c 5b 1a 4b 3c 69 c0 eb 3c
       -0.06305394 0.015948048 0.01239642 0.028778272
000050 05 4e 9d 3d ff 03 bb 3b 0c ea a6 3c 2c a9 51 3c
       0.07680897 0.0057072635 0.020375274 0.012796681
000060 0c cb 55 3c 19 4f 75 bd a1 30 ce bc 25 b6 6d bd
       0.013048898 -0.059889887 -0.025169672 -0.058035035
000070 4b f4 39 3d 17 00 b7 bb 22 ba 8a bd 8a 4e e9 bc
       0.04539899 -0.0055847275 -0.06773783 -0.028479833

b3.weight f4 [64, 32, 3, 3]
000000 5f 89 27 3d b8 ef c6 bc 64 fe 2e bd c2 58 d2 bc
       0.04090249 -0.024284229 -0.042723075 -0.025677089
000010 e0 33 c6 3a 4a af df 3c 14 59 5c 3c d6 38 ce 3c
       0.0015121661 0.027305264 0.013448972 0.025173586
000020 c0 b2 18 3a 50 13 2a bd c0 7c c2 bb 87 05 56 3d
       0.00058249757 -0.041522324 -0.0059352815 0.052251365
000030 78 6c f3 3b 27 21 62 3d 18 52 ce 3b d0 89 fa bc
       0.007428702 0.055207398 0.0062964074 -0.030583292
000040 81 68 52 3d fa 5c 35 bd 68 b5 2f bd 18 92 fc 3b
       0.051369194 -0.044278122 -0.04289761 0.0077078454
000050 63 e5 6c 3d b0 81 ed bb 00 44 36 ba 14 13 45 3c
       0.057835948 -0.007248126 -0.0006952882 0.012028474
000060 3b 64 43 3d 36 dd 10 bd 72 5d e0 3c c4 b9 5f bd
       0.04770301 -0.035367213 0.027388308 -0.05462052
000070 2a 65 ca 3c d1 69 4f 3d 7e c4 b2 3c cc d6 06 bc
       0.024706442 0.050638024 0.02182221 -0.0082299225
000080 d3 27 53 bd 00 00 9a 34 0b 98 69 bd 05 00 29 3d
       -0.05155165 2.8684735e-07 -0.057029765 0.041259784
000090 3a da 14 bd b8 a0 f5 3b 29 04 08 3d 48 75 bb 3b
       -0.03634093 0.007495966 0.033207092 0.005720768
0000a0 5b 7d fe bc 8f b1 fa bc b0 1e 67 bd ae 3f 59 bd
       -0.031065634 -0.030602245 -0.05642575 -0.053039245
0000b0 84 16 6c bc cf 4b 42 3d 22 b9 9b bc f4 36 3a bc
       -0.014409665 0.047435578 -0.019009177 -0.011365641
0000c0 02 e6 5f bd e0 ff b6 bb 3c ff 74 3c e0 a6 02 bb
       -0.054662712 -0.005584702 0.014953431 -0.001993589
0000d0 ac fe 97 bc c4 af 95 bc c6 5c d2 3c 23 38 64 3d
       -0.018554054 -0.018272288 0.025679003 0.0557176
0000e0 5e c4 8a bc 32 da a7 3c 29 86 4c 3d c6 99 68 bd
       -0.016939338 0.020489786 0.049932633 -0.056787275
0000f0 2e b7 82 3c a8 54 8f 3b 26 47 ac 3c f4 b5 77 bc
       0.015956488 0.0043741055 0.02103002 -0.015119065
000100 15 a4 35 3d 63 7e 4c bd 7b 3b 63 bd 78 83 8a 3b
       0.044345934 -0.04992522 -0.055476647 0.004227098
000110 e0 64 18 3b d0 f2 1b bd 08 01 50 bd 7f 67 1d bd
       0.0023253486 -0.03807336 -0.050782233 -0.03842878
000120 54 14 4a 3c a6 6a 6a bd 22 ba bc 3c 39 42 33 3d
       0.012333948 -0.057230614 0.023037974 0.043764327
000130 2b f1 13 3d e2 a6 d2 bc 1c 62 03 3c e4 7c 51 3c
       0.036118668 -0.025714342 0.008018997 0.012786124
000140 6e 4d 38 bd c0 75 67 3a e7 42 1f 3d 08 e3 d6 bb
       -0.044995718 0.0008829497 0.038882162 -0.006557826
000150 70 62 1b bb 8f af 44 3d a6 3c f6 3c e3 76 11 3d
       -0.0023709796 0.04801899 0.030058216 0.03551377
000160 4c c4 5b bc 3b 1b 23 3d 1d 69 0c 3d 9b fc 23 bd
       -0.0134135 0.03982089 0.03427993 -0.040035825
000170 9e 53 f6 3c 9a 47 e7 3c 25 49 31 3d 96 ec 2d bd
       0.030069169 0.028232384 0.043282647 -0.042461954
000180 21 31 6f 3d a4 48 14 3c fc 32 11 3c a7 08 3d 3d
       0.058396462 0.009050522 0.008862253 0.04615083
000190 e0 f4 b5 3a e1 b2 0f 3d 5d 20 6f 3d 13 81 07 3d
       0.0013882183 0.0350827 0.058380473 0.03308208
0001a0 ab c8 47 3d 85 89 32 bd 49 65 5b 3d 3a 3b f2 3c
       0.048775356 -0.04358818 0.05356339 0.029569257
0001b0 bd a6 28 3d 68 3a f2 3b f4 9b cb bc 43 52 31 3d
       0.04117464 0.0073922165 -0.024854638 0.04329134
0001c0 3e 65 df 3c d5 70 25 bd a7 06 5c 3d e8 94 44 bc
       0.027269956 -0.040390808 0.05371728 -0.011998393
0001d0 64 9a 17 bd 30 db c4 bc f7 3e 32 bd 3f 76 68 bd
       -0.037012473 -0.024030298 -0.04351708 -0.056753393
0001e0 d6 ee f4 3c 98 75 d3 bc d4 0e c0 bc 2b 1a e8 bc
       0.029899042 -0.025812909 -0.02344457 -0.02833279
0001f0 5a b8 0c bd d4 60 22 3c 5c 04 7c 3c e1 6a 17 3d
       -0.0343555 0.009910781 0.015381899 0.036967162
000200 63 c5 18 3d 0c a9 6e 3c 9c 25 5c 3c d0 2e 23 3b
       0.037297618 0.014566671 0.013436701 0.0024899729
000210 be 42 2a bd 29 c9 52 bd a3 57 58 bd a4 fb 3b bd
       -0.041567557 -0.051461373 -0.052817952 -0.04589428
000220 36 69 fd 3c bb 4c 65 3d f0 f0 cf bb 38 3c 84 bb
       0.030933958 0.05598138 -0.0063458607 -0.004035499
000230 0c 59 a5 bc 7e 3b a3 3c 98 2c 08 bc e8 09 c3 3b
       -0.020184062 0.019925829 -0.008311413 0.0059521087
000240 7a e8 b4 bc 2e e4 cc bc d9 35 fc bc ae 42 f3 3c
       -0.02208351 -0.025011148 -0.030787395 0.029694881
000250 9b e7 3a 3d 86 b3 0b bd e3 e8 08 3d ad 2a 07 bd
       0.045631032 -0.034106754 0.033425223 -0.032999683
000260 9c b5 fa bc d0 1f 1c bd a8 ca e0 3b 20 f7 71 bb
       -0.030604176 -0.038116276 0.006860096 -0.003692098
000270 8a 1b d5 3c 14 0d 4e bd 39 48 36 3d b8 8c a9 3b
       0.026014108 -0.05030544 0.04450247 0.0051742457
000280 c0 80 56 bd ab de 2a 3d e0 3d a2 bc da 6f 93 3c
       -0.05236888 0.04171626 -0.019804895 0.01799767
000290 30 e8 3c bc ba a9 be 3c f6 95 b7 3c 99 4c 66 bd
       -0.011529967 0.023274291 0.022410374 -0.056225393
0002a0 cc 25 6d bc e5 18 5a bd 12 6c 88 3c 77 d0 41 3d
       -0.0144743435 -0.053246398 0.016653094 0.04731795
0002b0 89 c3 fd bc 27 8b 4c 3d 7c ba 72 3c 86 6e ed 3c
       -0.030977027 0.049937394 0.014814969 0.028983366
0002c0 a4 c0 6e 3c 8c a8 2c bd 6b fa 61 bd 80 d2 05 bb
       0.014572296 -0.042152926 -0.055170458 -0.0020419657
0002d0 86 55 6c bd 10 19 13 3b 10 4b 3e bd e0 0a 96 bb
       -0.05769875 0.0022445358 -0.046458304 -0.004578933
0002e0 df 1e 2b 3d d5 f2 3b bd 82 ec c1 bc d7 46 67 bd
       0.041777488 -0.04588588 -0.023672346 -0.056464043
0002f0 cf 7c 14 3d 46 54 d8 3c c8 85 be 3b ab 38 28 3d
       0.03625184 0.026407372 0.005814288 0.041069668
000300 62 90 de bc a6 d5 8c bc 42 00 e9 bc dc 78 fb bc
       -0.027168456 -0.01719172 -0.028442506 -0.030697279
000310 ab 04 0a bd 00 96 18 3a 74 11 9f bc 22 87 d3 3c
       -0.033695858 0.00058206916 -0.019417502 0.025821272
000320 ca cf be 3c a7 d3 48 3d 0a a4 b0 3c a4 4a c0 bc
       0.02329244 0.049029972 0.021562595 -0.023473091
000330 d4 dd 04 3c 4a 9f 98 3c 60 28 8b bc c4 75 70 bc
       0.008109529 0.018630642 -0.016987026 -0.014676515
000340 a9 72 2e 3d df 29 58 3d 70 b3 19 3b 70 9e d8 bc
       0.042589817 0.052774306 0.00234529 -0.026442736
000350 d6 15 2a bd 20 69 42 3b fe 80 e2 bc 71 5c 5b 3d
       -0.04152473 0.002966471 -0.027649399 0.053554956
000360 69 e5 0e bd 70 96 ae bc a0 d0 20 bd 3e 73 45 bd
       -0.03488675 -0.021311969 -0.03926146 -0.048205607
000370 ad 81 5d bd 31 46 68 3d d4 8a 28 3c 41 09 42 3d
       -0.054078747 0.056707565 0.010287005 0.047372106
000380 ca ab 8d 3c 14 8d 47 bd 00 64 70 38 02 dc 89 3c
       0.01729383 -0.048718527 5.731359e-05 0.01682854
000390 06 8e d6 3c 45 8e 5d 3d 82 cd ca 3c 61 51 48 3d
       0.026190769 0.054090757 0.024756197 0.048905734
0003a0 44 fe 9f bc ac 9d 3d bd 0e 76 9c 3c 24 ce 3a bd
       -0.019530423 -0.046292946 0.019099262 -0.045606747
0003b0 e1 01 24 bd 9a d8 64 bd 62 7b bb 3c 5e 8f 86 bc
       -0.040040854 -0.05587063 0.022885982 -0.016425785
0003c0 08 0f 29 bc d8 a1 46 bc bd 94 ff bc 6d 1c 5b 3d
       -0.010318525 -0.0121235475 -0.031198854 0.053493906
0003d0 96 6e c2 3c 36 b7 4c bd 7a cf e9 3c 98 da 2a bd
       0.023734372 -0.04997941 0.028541315 -0.041712373
0003e0 77 93 09 3d 6c 60 65 bc 10 2d f4 bb f6 8c 9b 3c
       0.0335879 -0.01400004 -0.007451661 0.018988114
0003f0 31 17 09 3d ec 68 6c 3c f8 a6 99 bc b8 d1 96 3b
       0.033469383 0.014429312 -0.018756375 0.004602637

b3.bias f4 [64]
000000 f0 c2 4a bb 2b aa 13 bc 7b a8 92 bd ac fe 5f bd
       -0.0030938946 -0.009012739 -0.07161041 -0.054686233
000010 fe 2e 4f bd 78 22 f5 bc d5 da cb 3b 2a 68 84 3b
       -0.050581925 -0.029923663 0.006221155 0.0040407376
000020 36 e3 53 3d 00 03 1d 3c dc c2 85 3d be de 68 bd
       0.051730357 0.009583235 0.06531307 -0.05685305
000030 50 7d 01 bd 57 fd 6c bd d9 1a cc bc 1a 60 1b bd
       -0.031613648 -0.05785879 -0.024915146 -0.037933446
000040 78 ec 3d 3d 14 57 30 3d 07 a5 70 3d 48 db 42 3d
       0.046368092 0.043051794 0.058751132 0.047572404
000050 6b 89 7a 3d 04 3c a5 ba e0 e4 94 3c 0b 45 19 3c
       0.06116621 -0.0012606387 0.018175542 0.00935484
000060 27 44 23 3d 6e 9a f7 3c 58 75 8e 3d 7a 5c d6 bc
       0.039859917 0.030225005 0.06955975 -0.026167143
000070 99 dd 10 3d f4 be 61 3c f0 c3 74 3c 9a 86 b5 3c
       0.035367582 0.013778437 0.014939293 0.02215891
000080 2a 39 92 3d 14 42 2c bc 39 b9 85 39 7d 9a 0c 3d
       0.071398094 -0.010513801 0.00025505738 0.03432702
000090 2b 99 19 bd 44 46 6a bd 9a 87 63 3d 02 bb 98 bc
       -0.037499588 -0.057195917 0.05554924 -0.01864386
0000a0 17 b2 4d bd e6 46 85 bd 3f 2c 00 3d 0d ff 9e 3c
       -0.050218668 -0.065076634 0.031292196 0.019408727
0000b0 e4 2e 43 bb 3a 55 4d 3d b3 8a 13 bd 2c cb 06 3c
       -0.0029782588 0.050130107 -0.036020946 0.008227151
0000c0 a8 ff 45 3d 75 3f 4b 3d b3 49 0d 3d bc 21 5d bc
       0.048339516 0.049621064 0.034494113 -0.013496812
0000d0 02 93 42 3d 3d e9 60 bc 7c 4f 17 bd 6a 44 01 bd
       0.04750348 -0.013727483 -0.036941037 -0.031559385
0000e0 aa 6d 63 3d f9 dd b0 bb 08 4a 5d bd 48 cd f3 3b
       0.055524506 -0.005397555 -0.05402568 0.007440243
0000f0 05 cf 3b 3d bb 00 35 bd b6 10 f4 3c 40 f1 81 bd
       0.045851726 -0.04419015 0.029793125 -0.06344843
